Backend & NLP/Chatbot_arr/data.pth (torch, 154417 bytes, 6 tensors)

net.0.weight f4 [128, 142]
000000 9e 2e 5d 3d 77 56 e5 3d 14 29 da 3d a6 20 c8 3c
       0.053999536 0.111981325 0.10652366 0.02442963
000010 fa c0 99 3d 8b 9e 85 bd 06 05 09 bd 2c e5 a8 3d
       0.075075105 -0.0652438 -0.033452056 0.08246836
000020 80 72 ac bb 4c 37 36 bd d9 d3 5a 3c b2 96 ed 3d
       -0.005262673 -0.04448633 0.0133561725 0.116010085
000030 13 23 06 3d 10 32 6d 3d c0 c7 af bd 87 f9 e1 3d
       0.032748293 0.05790907 -0.08583021 0.11033922
000040 8a 16 59 bb f1 98 56 3e fa 13 19 3e 29 74 69 bd
       -0.0033125007 0.2095678 0.14949027 -0.056995545
000050 f6 cf f4 bc 39 d4 ec 3c 78 d4 ce 3d d3 73 f4 bd
       -0.02988432 0.02890979 0.10099119 -0.11936154
000060 fd 01 38 be 07 56 0a bd f8 91 73 3b d8 41 91 3d
       -0.17969508 -0.03377345 0.0037165862 0.07092637
000070 40 17 b1 3d 8f 57 e7 bd ac 8f 34 be 43 e7 42 3e
       0.08647013 -0.11295997 -0.17632931 0.19033532
000080 09 92 87 3d 71 6a 7d 3e fd 92 0d bd 19 f7 06 3e
       0.06619651 0.24747635 -0.034564007 0.13180198
000090 f2 34 50 3c 16 58 df bd 89 70 d9 bd bf 1e 27 3d
       0.012707936 -0.10905473 -0.106171675 0.040800806
0000a0 4c 3a 5c bd e3 c5 22 be 15 19 bf bd df 61 bc 3d
       -0.053766534 -0.158958 -0.09330956 0.09198355
0000b0 45 20 db bd 36 27 e6 3d ca 20 c6 3d f8 d1 4a bd
       -0.10699514 0.11237948 0.09674223 -0.049516648
0000c0 3f 2a 97 3d 75 45 2e be ee 34 8b 3e c6 fd 06 3c
       0.07381105 -0.17018683 0.2718882 0.008239215
0000d0 3c 07 3c 3e cd 4a 84 3e e4 dc ec 3c aa 86 5c 3e
       0.18362135 0.25838318 0.028913923 0.21535745
0000e0 69 d6 9c bd 45 c6 de bd 2d be 12 be a3 03 30 3e
       -0.07658083 -0.10877661 -0.14330359 0.17188887
0000f0 1e 2d 6b 3e 44 bb 3d 3d a3 f7 51 3e 23 03 cb bd
       0.2296643 0.04632117 0.20504622 -0.09912708
000100 e3 6d 14 be 0f 91 ac 3d d2 ed d1 bd 62 8a bc 3c
       -0.14495043 0.08426105 -0.10250439 0.023015205
000110 60 fa dd 3d c0 0c 89 3d bb ba 05 be e5 df b0 bc
       0.10838771 0.06691885 -0.13059513 -0.021591136
000120 93 74 76 bd cf ba ee bd 30 15 27 bc fe cc d4 bd
       -0.060169768 -0.11656725 -0.010197923 -0.10390662
000130 59 52 ee bb 2b e6 a4 3e 26 eb f4 bd 73 79 05 bc
       -0.007273 0.32206854 -0.119589135 -0.0081466315
000140 f3 1c 27 be f3 05 85 bd ee c2 b1 3c 1a e1 b5 bd
       -0.16319637 -0.06495275 0.021699395 -0.08880825
000150 21 89 70 3e aa 37 db 3d 42 c8 11 bd 61 55 fa 3d
       0.2348981 0.107039765 -0.03559137 0.12223316
000160 ca 7f 01 bd ac c4 3e bd 38 ae 0b 3c fa 38 df bd
       -0.03161601 -0.04657428 0.008525424 -0.10899539
000170 ef f3 c0 bd f8 b4 80 3e 08 0e 37 3e a0 f9 0a bb
       -0.09421527 0.25138068 0.17876446 -0.0021205917
000180 94 10 65 3e 25 ae 37 3e 44 d1 d4 3c f9 f4 f8 bd
       0.22369605 0.17937525 0.025978692 -0.121561
000190 b8 a7 a5 3d a7 23 1c 3e a4 fe 2e be e0 f3 5c 3d
       0.080886304 0.15247975 -0.17089325 0.053943515
0001a0 46 ff 00 3e b3 b6 56 3e 0e ec c5 bd 15 34 0d bd
       0.12597379 0.20968132 -0.096641645 -0.034473497
0001b0 82 eb 3b 3d 50 ed db bd ca 60 70 bb 28 32 6c 3d
       0.045878895 -0.10738623 -0.0036678785 0.05766502
0001c0 2d 59 3e 3e 21 17 1a 3e 4f 8c c9 bd ae 04 7c 3d
       0.18588705 0.15047885 -0.09841215 0.0615279
0001d0 84 2f 45 3e 58 45 0e 3d 27 8f 11 be bd f4 37 bd
       0.19256407 0.0347341 -0.14214765 -0.044911135
0001e0 e0 b9 23 3d c9 40 47 3e 39 d6 2c be 0b c5 1c be
       0.039972186 0.19458307 -0.16878594 -0.15309541
0001f0 35 74 3d 3d 63 b8 f9 3d 98 da a9 bd c4 0b 09 3e
       0.0462534 0.12193372 -0.082936466 0.13383394
000200 96 a8 8a bc 49 79 2b 3d d9 28 1c 3e a5 02 a2 bc
       -0.016926091 0.041863713 0.15249957 -0.019776652
000210 4f 82 15 bb ee 4c 8f 3e cc c0 39 be 9a 35 3d 3e
       -0.0022813266 0.2798838 -0.18139952 0.18477479
000220 e0 1d 1a be 42 32 9b bb cc 3e 19 bb d1 43 bd bc
       -0.15050459 -0.004736216 -0.0023383377 -0.023103626
000230 02 85 15 3e dd 55 29 bd 0f 55 c5 3d 18 51 99 3d
       0.1460152 -0.04134165 0.09635364 0.074861705
000240 fd c4 23 3d f7 12 20 be 20 da 55 bb 5a aa f9 3d
       0.039982785 -0.15632235 -0.0032631233 0.12190695
000250 29 3c 3c 3e ac 2c 43 bd 58 8d 43 bd 46 f2 ea 3d
       0.18382324 -0.047650024 -0.047742218 0.11471991
000260 75 bf cd 3d c9 49 0a be 24 56 42 3e 59 55 9c bd
       0.10046283 -0.1350471 0.18978173 -0.07633466
000270 33 91 99 3d 47 1e 52 3d d4 1b f9 bd 6d 1d 1a be
       0.07498398 0.051298406 -0.12163511 -0.15050288
000280 1d 96 29 3e 1c b5 25 be 54 7a 8e bd 27 c8 e2 bd
       0.1656117 -0.16182369 -0.06956926 -0.11073332
000290 a1 87 07 3e d7 c6 28 be c0 96 2b 3c f5 c0 4a 3e
       0.13235332 -0.16482101 0.010472953 0.1980017
0002a0 b7 e0 5e be 88 41 c2 3d 25 11 90 bc 60 5e 47 3e
       -0.2176541 0.09485155 -0.0175863 0.19469595
0002b0 4b e6 b5 bd 65 96 e3 bd bb f4 2f bd f0 15 80 3e
       -0.088818155 -0.1111267 -0.042958003 0.25016737
0002c0 6a c9 bb 3d 85 1c 4a 3e 08 af 92 3e 8e 26 d0 bd
       0.09169276 0.19737442 0.28649163 -0.10163604
0002d0 06 9f 94 bd 3a 31 36 3e 8b 5b 43 bd 4b 30 0c 3e
       -0.07256894 0.17792216 -0.047694724 0.13690297
0002e0 f6 e8 23 3e cd d2 38 3e 8a 7c b8 3d fe f1 0c 3e
       0.16006836 0.18049164 0.09008129 0.13764188
0002f0 34 7c fd bd 90 c2 48 be ea e2 22 be 46 bc 31 be
       -0.123772055 -0.1960547 -0.15906873 -0.17356977
000300 8a 33 24 be 84 c2 c8 3d 13 05 87 bd 30 41 9b bd
       -0.16035286 0.09802726 -0.06592765 -0.07580793
000310 fc 6a 8c 3d bf ff 4b 3c 44 cd 2d be b6 6a 13 bd
       0.06856343 0.012451111 -0.16972834 -0.03599044
000320 65 7a 07 3e 55 96 ae 3d 37 f8 39 3e 66 db 02 3e
       0.13230284 0.08524767 0.18161093 0.12779006
000330 53 fb 21 3e be b2 0a be 39 d6 eb bd ee 83 8d 3b
       0.15818529 -0.13544747 -0.11515469 0.0043187058
000340 87 a4 0c be de 63 69 bd 2e 26 db bd a2 ae 1d 3e
       -0.13734637 -0.056980006 -0.107006416 0.15398648
000350 68 38 d9 3d 7b d4 2e 3e 12 b1 73 3c 5d 6b 87 bd
       0.10606462 0.17073242 0.01487376 -0.06612275
000360 ff 78 62 3d 3e 67 43 3d 7d af 1b bc f7 63 56 be
       0.055291172 0.04770588 -0.009502289 -0.20936571
000370 95 c6 18 be 30 13 f0 3d 06 69 24 be 92 df 9e 3d
       -0.14919503 0.1172241 -0.16055688 0.077574864
000380 fb 8b ed 3d 23 70 45 3e 9f d1 48 3c 27 dc 66 3e
       0.11598965 0.19281058 0.012257009 0.22544919
000390 e9 80 2e 3d 2c 40 23 3f 33 80 06 3d e7 61 90 bd
       0.042603407 0.63769794 0.032837104 -0.070499234
0003a0 f6 01 0c bd 60 8c e3 bc 7e a9 ad bd 7e 84 14 be
       -0.034181558 -0.027776897 -0.08479594 -0.14503667
0003b0 e9 e3 3d 3e 18 86 3a bc 13 c7 9b 3e 7b ed 6c 3e
       0.18543972 -0.0113845095 0.3042532 0.23137467
0003c0 ce 74 09 3e 8b e9 84 bd 23 ed 0d 3e 13 10 7d 3e
       0.13423464 -0.06489857 0.13859992 0.24713163
0003d0 37 42 28 be 35 d7 18 be 65 7a 6c 3d ca e5 3a be
       -0.16431509 -0.14925845 0.057733912 -0.1825172
0003e0 55 67 31 3e 67 68 98 bd 0e 2d e9 3d ff 46 4b 3c
       0.17324574 -0.07441788 0.113855466 0.0124070635
0003f0 96 ef 17 bb f4 cf 9e 3b 3a 6e ea 3d 18 e7 59 3c
       -0.0023183576 0.0048465673 0.11446805 0.013299726

net.0.bias f4 [128]
000000 0d a8 b8 3c c0 aa 28 3e b4 33 0b 3e 8f 29 3f 3e
       0.02254107 0.16471386 0.13593942 0.18668197
000010 c2 36 9a 3d bb 88 a2 3d b6 2c 08 bc 5f df 84 3d
       0.075299755 0.079362355 -0.008311441 0.06487917
000020 88 14 71 3d b2 c4 d4 bb b6 30 4d 3d 1d 8a 2d 3e
       0.05885747 -0.0064931745 0.050095282 0.16947217
000030 c0 9d 63 3e e3 18 74 3e 05 18 58 bc 8e 3e 82 3d
       0.22228146 0.23837619 -0.01318932 0.063595876
000040 46 d0 b7 bb 3d 8a 5e 3e 48 52 14 3e da 08 76 3d
       -0.005609545 0.21732421 0.14484513 0.060067035
000050 f3 77 b0 bc 03 a7 06 3e 90 cd 3a 3d f0 3f d8 3d
       -0.021541571 0.13149647 0.045606196 0.1055907
000060 37 92 07 3e 49 22 44 3e 34 ec 0c 3e c5 9c 68 3d
       0.1323937 0.19153704 0.1376198 0.056790132
000070 b5 48 8b 3e 7e 59 58 3e 4a 48 12 3e 7f 0b 4e 3e
       0.2720391 0.21127889 0.14285389 0.20121573
000080 f5 96 c8 3d 36 81 b7 3d 17 8f d5 3d 75 49 34 3d
       0.09794418 0.08960192 0.10427683 0.044015367
000090 32 74 a5 bc 32 ca 6c 3e 54 b4 b6 3e 20 21 de bb
       -0.020197008 0.23124006 0.35684454 -0.006778851
0000a0 b6 33 45 3d 38 7b a8 3e 3e 29 85 3e f8 46 8d 3e
       0.04814502 0.32906508 0.26008028 0.27593207
0000b0 3a 18 3e 3e c2 f5 71 3e 73 06 2e 3e 1e 90 d2 39
       0.18563929 0.23628905 0.16994648 0.00040161697
0000c0 d9 9a fd 3d 33 77 1c 3e 7c ab 4d 3d 95 4b 9a 3e
       0.123830505 0.15279846 0.05021237 0.3013579
0000d0 ec c3 c6 3d d2 e4 e0 3c 55 23 ee 3d 36 84 6a 3c
       0.09705338 0.02745286 0.11627833 0.014313748
0000e0 5d 4b 68 3d b9 06 d1 3b 2f 11 f0 bc 0b d5 49 3e
       0.056712497 0.006378975 -0.029305069 0.19710176
0000f0 b4 db 2e 3e 49 96 33 3c 66 4d 2e 3d 4e ea 6d 3d
       0.17075998 0.010961124 0.04255428 0.05808478
000100 80 5f 76 3d 06 5d 99 3d 51 a1 19 3e cc 92 8f bc
       0.06014967 0.07488446 0.15002944 -0.017526053
000110 44 30 27 3e ba ea 6f 3e f4 68 8d 3e b5 47 6f 3d
       0.16327006 0.23429385 0.27619135 0.058417995
000120 f6 80 04 b9 03 24 e6 3d f3 8a 0b 3e 36 79 9e 3d
       -0.00012636543 0.112373374 0.13627224 0.07737963
000130 62 c4 93 3d 99 34 55 3d 1e b5 4b 3e 05 fd 1c 3e
       0.072151914 0.052052114 0.1989331 0.15330894
000140 49 ca 02 3e 14 e8 c7 3d 1f 63 89 3e 17 27 6b 3e
       0.12772478 0.09761062 0.26833436 0.2296413
000150 60 4c 92 3e 8f 1d b2 3b 31 08 01 3e aa 04 fc 3d
       0.28573895 0.0054356526 0.12600781 0.12305577
000160 e4 1d 12 3e bb 14 3e 3e fd 74 af 3d 9f a6 39 3d
       0.14269215 0.18562596 0.085672356 0.045324918
000170 cc ef c2 bb 4c 86 10 3e 69 ec d7 3d 82 76 19 3e
       -0.005948996 0.1411373 0.105431385 0.14986613
000180 c6 25 ce 3d d3 d2 cd 3c 7c 30 8d 3d 3a e4 8f 3d
       0.100657985 0.025124943 0.06894013 0.07025953
000190 60 2f bb 3d 9a 01 c2 3d 16 da a2 bd 69 f7 82 3e
       0.091398954 0.09472962 -0.07951753 0.25579384
0001a0 fb b7 af 3e 07 b5 37 3d ab 9d 36 3e 59 85 02 3e
       0.34320053 0.044850376 0.17833583 0.1274618
0001b0 d2 c5 ae 3d a3 95 c5 3d 82 bb 2c 3e 32 c4 6d 3e
       0.08533825 0.096476816 0.16868404 0.23219374
0001c0 04 d5 ca 3d e7 63 5f 3e 5a eb df 3d e6 87 60 bc
       0.09903911 0.21815453 0.109335616 -0.013704276
0001d0 9e d5 d8 3d 90 04 e9 3d 82 ae 7b 3e c1 80 a0 3a
       0.10587619 0.11377823 0.24578288 0.0012245403
0001e0 42 9e 87 3c 65 64 fe 3d 3c 60 8d 3e 32 ff 8c 3d
       0.016554955 0.124214925 0.27612484 0.06884612
0001f0 ec d6 c0 3d 6f 8b b9 3d ff f9 14 3e e7 3d 85 3e
       0.09415993 0.09059798 0.14548491 0.2602379

net.3.weight f4 [128, 128]
000000 bd 94 11 bd f9 1a 84 3e b4 21 e7 3d 38 3d 84 3e
       -0.03554224 0.25801829 0.11285725 0.25827956
000010 d4 17 6b 3c 3b 3f 4e 3e e0 15 81 b9 9f 53 e9 bc
       0.014348943 0.20141308 -0.00024621096 -0.028482256
000020 80 08 ad 3c d6 1b e1 bc 8a fb f3 bc a1 14 14 3e
       0.021122217 -0.027479094 -0.02978303 0.14460994
000030 b4 cd 9f 3d 9c f9 54 3e 55 4a b7 bd 1e 57 88 3e
       0.07802907 0.20798343 -0.089497246 0.26628965
000040 99 62 80 3e 06 fc aa 3e d6 68 a9 3e 61 ac 80 be
       0.25075224 0.33395404 0.33087796 -0.25131515
000050 f4 d9 0a be 10 c4 02 3c 6e 24 ae 3d 53 19 83 bd
       -0.13559705 0.007981315 0.08503042 -0.064013146
000060 4e d3 49 3d cc 74 d3 3d 2b 06 0e 3d f5 c3 79 3d
       0.04927378 0.103250116 0.03467385 0.060977895
000070 73 02 4b 3d 47 4c b4 3e 01 8a 9b 3d 29 7e 8d bc
       0.049562883 0.35214445 0.075946815 -0.017272072
000080 6d b4 1e bd 8f d7 c5 bd 35 3c 31 3e f3 31 73 3d
       -0.038746286 -0.09660255 0.17308123 0.059373807
000090 92 45 f0 bc 1a 36 14 3e e6 6d 39 3e 66 e8 78 3d
       -0.029330049 0.14473763 0.18108329 0.060768507
0000a0 fc 69 9b be ff 31 3e 3e cb ad 4c 3e b4 32 61 3e
       -0.30354297 0.1857376 0.19988172 0.21991998
0000b0 9f c8 f8 3d 3c ef 95 bd 86 4a da bd 78 e9 05 3e
       0.121476404 -0.07321021 -0.106587455 0.13077343
0000c0 9d 92 05 3e 21 ce b8 3d 69 ac 0e 3d 36 63 78 3e
       0.1304421 0.09023691 0.034832392 0.24256596
0000d0 16 70 88 3d 73 f1 21 be d5 57 09 3e d0 4a a3 3b
       0.06662004 -0.15814762 0.13412412 0.0049832836
0000e0 66 cf 7e bd 3c f0 8f 3c 0c 88 08 bd cd 09 ba 3d
       -0.06220951 0.017570607 -0.03333287 0.090839006
0000f0 06 b7 c5 3d ac 8f 68 bd 32 21 a0 3d 02 38 aa bd
       0.096540496 -0.05677764 0.078188315 -0.08311464
000100 b9 20 e8 bd 6c 92 88 3d e0 ba 41 3e 62 59 9a bd
       -0.11334366 0.06668553 0.18918943 -0.0753658
000110 0e 0f 08 be d5 a0 6c 3c e0 34 3a 3b 12 e9 aa bd
       -0.13286993 0.014442642 0.0028412864 -0.08345236
000120 8e 26 1c bd 90 bf 6d 3d eb 63 89 bd 14 95 0f be
       -0.038122706 0.058044016 -0.06708511 -0.14021713
000130 1a aa 0e 3e 41 43 7c 3d eb a0 93 3e bf 03 56 3e
       0.13932076 0.061587576 0.28833708 0.20899867
000140 4f 32 fc 3d 01 dc d3 bd c1 2f 8d 3e 8c 33 49 3d
       0.12314283 -0.10344697 0.27575496 0.049121425
000150 78 b3 d0 3e f6 6f c6 bc 86 a1 35 be b2 e6 47 3e
       0.40761924 -0.024223309 -0.17737398 0.19521597
000160 2b ff 11 3e 77 1b 89 bd 6c 6a 82 bd f4 b7 0b 3d
       0.14257495 -0.06694692 -0.063679546 0.03411098
000170 08 7d af 3d f0 db 36 3d 96 18 80 3e 08 0a 2c 3e
       0.0856877 0.044643342 0.25018758 0.16800702
000180 7c 4c 80 bc 5c 4b 6e 3d 7d 72 0a 3d 8b 1c 34 3e
       -0.01566147 0.058177337 0.03380059 0.17589013
000190 67 96 b7 bd be 81 1c 3e 32 91 55 bc 20 31 90 3e
       -0.08964234 0.15283868 -0.013035106 0.2816248
0001a0 e7 98 9a 3e d1 3a 0f be e2 8c 0f 3e de ba 13 be
       0.3019478 -0.1398728 0.14018586 -0.14426753
0001b0 2a a3 50 be 41 26 05 be d2 95 65 3e b3 48 bb 3e
       -0.20374742 -0.13002874 0.22420433 0.36578903
0001c0 2c fc 57 bd 5e a2 d7 bd ab 67 38 bd 77 3a 6d be
       -0.052730724 -0.10529016 -0.04502074 -0.23166834
0001d0 67 92 01 be 65 84 ab bd f0 26 08 3d 45 c3 77 3e
       -0.12653504 -0.08374862 0.03324026 0.24195583
0001e0 65 13 74 be 4e 7f 19 3d cf 24 c3 bb de 58 1b be
       -0.23835523 0.037474923 -0.0059553157 -0.15170619
0001f0 de 35 10 3e 65 32 f9 bd c7 2e c5 3d 43 1f 47 3e
       0.14083049 -0.12167815 0.09628063 0.19445519
000200 39 11 8b bd 00 14 64 3d 0f ad 26 3e 01 78 c6 3d
       -0.06790394 0.055683136 0.16276954 0.09690858
000210 78 8c e9 bd ae 54 84 bd 4d fc ec bd 28 e8 ad be
       -0.114037454 -0.06461464 -0.1157156 -0.33966184
000220 83 4d 68 3d 51 7f f6 39 f1 88 9c 3e 33 a8 bb bb
       0.056714546 0.00047015634 0.30573228 -0.005726838
000230 7b d1 7b 3e 1c 5f e0 b7 51 c6 48 bd 28 85 a2 ba
       0.24591629 -2.674717e-05 -0.049017254 -0.0012399303
000240 17 00 d4 bd 75 14 cb bd 74 19 0d 3e b8 51 02 3e
       -0.1035158 -0.09916011 0.13779241 0.12726486
000250 0b d8 fa 3d 50 e2 dc 3d f6 db 0a 3e 6c a1 c1 3c
       0.12248238 0.10785353 0.13560471 0.023636542
000260 62 78 a9 3d da a2 69 3c 53 59 02 bf c8 e3 1b 3e
       0.08274914 0.014260018 -0.5091755 0.1522361
000270 8f 24 85 bc f2 07 0d 3e ab ff 3a 3e bc 67 11 3e
       -0.016252784 0.13772562 0.18261592 0.14199728
000280 0e 1b c2 bd c8 b2 2e 3e ee 68 4c 3c fb 0a 23 be
       -0.094778165 0.17060387 0.012476189 -0.15922157
000290 f2 8e 21 3d 68 cd 26 be f8 42 c5 3b 7a f9 8c 3c
       0.039442964 -0.16289294 0.006019946 0.017208803
0002a0 e1 52 76 bd 47 6e 12 3e a4 f7 1c be 52 6d 7b 3d
       -0.060137633 0.1429988 -0.15328842 0.061383553
0002b0 bb 2a 7b be 68 50 14 be c6 79 e0 3c 84 9b 80 3e
       -0.24528019 -0.14483798 0.027401816 0.2511865
0002c0 da eb 7d bd 6b 57 18 bd 61 89 af 3d 10 4b 4e 3d
       -0.061992504 -0.037192743 0.08571125 0.050364554
0002d0 85 39 26 bd ff 64 85 3e 83 30 19 3d a8 53 2e be
       -0.0405822 0.26053616 0.03739978 -0.170241
0002e0 e9 bb 55 be 0f f8 6d 3e eb 4c 01 be ac 84 c3 bd
       -0.20872463 0.23239158 -0.12626998 -0.095467895
0002f0 41 f7 51 be c2 42 92 3d 04 a6 0f 3e a0 76 0f 3e
       -0.20504476 0.07141639 0.14028174 0.14010096
000300 c0 07 78 be 25 49 85 be db 4b b8 bd 36 12 3c 3e
       -0.24221706 -0.26032367 -0.08998843 0.18366322
000310 7b 5f 53 bd 48 f1 03 3e c5 44 ba 3d e8 31 1c be
       -0.05160473 0.1288501 0.09095148 -0.15253413
000320 69 8b 84 3d 18 ba 65 bd 86 a3 32 3d 8b f7 e4 3e
       0.06471903 -0.056085676 0.04361298 0.4472011
000330 6a 0b 25 be 73 78 bb 3e 25 34 d3 3d 76 a5 33 b9
       -0.16117635 0.36615333 0.1031268 -0.00017132409
000340 a9 ce 18 3e 42 d2 e5 bd d0 d6 9c 3e 69 98 f1 bd
       0.14922585 -0.11221744 0.3063264 -0.11796648
000350 15 6a b4 3d 29 ff 97 3e 8a ef 03 bd 1c f6 5f 3e
       0.08809296 0.2968686 -0.032210864 0.21871227
000360 9e 61 dd 3d 9f 00 9b 3d e1 14 a2 bd 9a e7 83 3d
       0.108096346 0.07568478 -0.079141386 0.06440659
000370 98 e3 20 3e 54 27 3e 3e ed e7 32 3e 03 e2 15 3e
       0.1571182 0.1856969 0.17471285 0.14636998
000380 58 95 a9 3c 13 5d 14 3d e7 cc 47 bd 55 c8 a9 bd
       0.020701095 0.036221575 -0.048779394 -0.082901634
000390 b0 8e fb 3d 81 24 6f 3e 15 b6 c5 bd cd 95 30 be
       0.12283075 0.23353769 -0.0965387 -0.17244644
0003a0 37 9a ca bb 3d e7 04 3e 17 4a 33 bb d4 d7 aa 3d
       -0.0061829346 0.12978835 -0.0027357393 0.08341947
0003b0 e7 62 d8 bd ad dc 5b be ed c8 39 be 1a cb 28 3e
       -0.10565739 -0.214709 -0.18143053 0.16483727
0003c0 f0 4f cf 3d 2a 0b 36 3d 8f a2 35 3e fb e6 c4 3d
       0.10122669 0.04444424 0.17737792 0.096143685
0003d0 93 df 0b bc df a9 e1 3c 9a 31 05 3e 72 db 4b 3e
       -0.008537191 0.027546821 0.13007203 0.1990793
0003e0 e8 9e a8 3e 65 49 fc bd d3 7b 56 bd 3c 95 49 3e
       0.32933736 -0.123186864 -0.05236418 0.19685835
0003f0 0b bc 10 bd e5 1c 1f be 59 ab 71 bd 65 71 5a be
       -0.03533558 -0.15538366 -0.0590013 -0.21332319

net.3.bias f4 [128]
000000 ed 1e 89 bd 97 8b de 3b e0 77 97 3c 3e 19 93 bd
       -0.06695352 0.0067915427 0.018489778 -0.07182549
000010 86 b2 3b 3d 15 b2 15 3e db a2 9d bd 97 da 50 3d
       0.04582455 0.14618714 -0.07697078 0.050989714
000020 d2 02 8f 3d a0 7a dd bd 08 64 10 be fa a3 a0 3d
       0.0698296 -0.108144045 -0.14100659 0.07843776
000030 04 70 76 3d 63 93 26 3d 54 67 a9 3d 9d 5a 13 bd
       0.06016542 0.040667903 0.082716614 -0.035975087
000040 68 01 9f 3d 64 27 c7 3d e0 d9 8c 3d 9f 6e 09 be
       0.0776394 0.0972431 0.06877494 -0.13421105
000050 50 85 51 3d e5 9d 1d bd f8 bb 47 bd 27 23 0d bd
       0.051152527 -0.038480658 -0.048763245 -0.034457352
000060 1e ea 2c be 2a ee b6 3d 25 3b dc bd 7f 2b 9b 3d
       -0.16886184 0.08932145 -0.107534684 0.075766556
000070 f3 de 6e 3c 6d cc fc bb 5f 09 24 bc 19 3e ac 3d
       0.014579522 -0.007714799 -0.010012 0.08410282
000080 d3 ad 81 bd dd e8 b7 bd 2f 44 c9 3d ef 19 0c bd
       -0.063319825 -0.08979962 0.09827458 -0.03420442
000090 59 4a 69 bd ce ac 5b bd 84 a9 d1 3c 0b 18 d5 3d
       -0.05695567 -0.053631596 0.025593527 0.104049765
0000a0 cf 29 21 3d 81 a0 b8 bd 33 8f 14 bc c3 bc 2f 3d
       0.039346512 -0.09014989 -0.0090673445 0.042904627
0000b0 b4 9d 41 be 73 f5 2c 3d 7c 98 9a bd 28 57 8a bc
       -0.18907815 0.042226266 -0.07548615 -0.016887262
0000c0 52 98 4d 3d 69 76 ba 3d 8a 72 de 3d aa 0f 1b 3d
       0.050194092 0.09104616 0.1086169 0.037856735
0000d0 f7 81 f1 3c fe ed c6 3d ab d8 d7 3c 4d a7 21 bd
       0.029480917 0.09713362 0.026348433 -0.03946619
0000e0 49 cf 59 bd bc 18 cc 3d df 87 b8 3c 2a 1a 60 3c
       -0.0531762 0.09965655 0.022525726 0.013678113
0000f0 db 4e 85 bd 4f 0a 48 3e 0f d2 27 3e 10 c9 16 3d
       -0.06509181 0.19535182 0.16388725 0.036812842
000100 c2 9f 93 bd bc 7c b9 3d ee 23 2a bd 99 2e e9 bd
       -0.07208206 0.09056994 -0.04153817 -0.11385841
000110 dc 97 00 bd 7c 80 b2 3c 69 23 30 3d 7b e9 97 bd
       -0.031394824 0.021789782 0.04300252 -0.0741758
000120 47 4d 64 bd 18 62 b3 ba 44 38 59 3d f1 e7 b5 3c
       -0.05573776 -0.001368585 0.053032175 0.022205325
000130 0d 3c 49 bd d5 f7 04 bd ba 47 57 bd 69 14 86 bb
       -0.049129535 -0.032462914 -0.05255864 -0.0040917885
000140 f5 66 6f 3d 74 55 55 3d 8a 23 50 bd ae 17 fa 3a
       0.058447797 0.052083448 -0.050815143 0.0019080543
000150 b3 08 f7 bd cd b3 cd bd 62 04 9f bd 04 60 47 3d
       -0.12062206 -0.1004406 -0.07764508 0.048675552
000160 dc 7c ec 3c 9c 2b 53 bc 09 9f 8e 3d 82 39 a0 bd
       0.028868131 -0.012888815 0.06963927 -0.07823469
000170 fd 10 12 bc bd b3 b1 3d 55 73 99 3c 07 60 65 bd
       -0.008915183 0.086768605 0.018731752 -0.055999782
000180 0d 5c af 3d fd 08 39 3d a0 02 25 3e 0c f7 c3 bc
       0.08562479 0.045174588 0.16114283 -0.023921512
000190 51 cb d9 3d 97 bb 0b bd 5c f0 e2 3c bf 70 84 bd
       0.10634483 -0.034114446 0.027702503 -0.06466817
0001a0 93 00 49 bc 9b bb 2b 3d bc eb a7 bd ce 9a a9 bd
       -0.012268203 0.04192696 -0.0819926 -0.0828148
0001b0 fb e2 50 bd 7c 98 62 3d 47 77 09 bd 3d 43 d3 3c
       -0.050997715 0.0553212 -0.033561017 0.025788898
0001c0 4e 28 39 3c 77 00 e0 bc c0 3d 9c 3d 72 7e 63 bd
       0.011301113 -0.027343972 0.076289654 -0.05554051
0001d0 8c 45 9c bc 0b 6e 8c 3e 95 73 87 3d e4 2d 61 3c
       -0.019076131 0.27427706 0.066138424 0.013743851
0001e0 39 40 91 3d 2c b6 02 bd 99 70 2b be 95 db 73 bd
       0.070923276 -0.031912014 -0.16742171 -0.05953558
0001f0 1e 5d 74 3d 08 dd b9 bd b5 58 5d 3d b7 0b 92 bc
       0.059659116 -0.090753615 0.054039676 -0.017827852

net.5.weight f4 [20, 128]
000000 05 a6 81 3c 49 8d 41 3e fe af 47 be 90 91 db 3c
       0.015826235 0.18901552 -0.1950073 0.026802808
000010 7c 13 f3 bd e1 70 ec be 6f 45 e5 bd 3b 9c 0b be
       -0.11868951 -0.4617987 -0.11194884 -0.13633816
000020 2f 16 d9 bb c5 1f 12 3e f7 71 50 bf a8 f7 ff bb
       -0.006624959 0.14269932 -0.81423897 -0.0078115053
000030 d0 01 e9 3c df 72 c3 3c f1 6c d8 be a7 5d 69 bf
       0.028443247 0.023858486 -0.42270616 -0.9115853
000040 0a 74 54 be 10 2f d2 be 87 c0 d0 3c 0b 81 5d 3d
       -0.2074739 -0.4105153 0.02548243 0.054078143
000050 5f 03 c2 be 9a bc f7 bd d7 58 35 be bb cd 8d bd
       -0.37893197 -0.1209652 -0.17709671 -0.069240056
000060 4b a6 87 3e 5c 54 1f bf d5 8a fa bb ae 2a fd be
       0.2649406 -0.622381 -0.0076459446 -0.49446625
000070 25 20 35 be d8 28 01 be b3 9b cb be 92 c0 53 be
       -0.17688043 -0.12613237 -0.39767227 -0.20678928
000080 e9 d1 b4 3d c0 a5 1d 3c c7 50 35 bd 87 5d 83 3d
       0.088291 0.009622037 -0.04426649 0.06414323
000090 42 6e 3e 3d 04 ac 89 be c0 2f 48 be eb 01 c4 be
       0.04649187 -0.2688905 -0.19549465 -0.38282713
0000a0 61 ba 00 be 23 6d 4a bc 7e fb 02 3e 92 5a 8a be
       -0.12571098 -0.012355122 0.12791249 -0.27022225
0000b0 e7 69 09 3f 3f 43 02 3e 62 b8 1b 3d 16 3d 73 bc
       0.5367722 0.12720965 0.038017638 -0.014846107
0000c0 34 be 30 3d be ed 5f be 83 48 59 bc 42 8c 19 3d
       0.04315014 -0.21868035 -0.013261917 0.037487276
0000d0 ec c5 be 3d 9d 82 4e 3d 26 42 bc bd 26 48 16 3d
       0.09315094 0.05041753 -0.09192304 0.0366899
0000e0 84 14 7f 3e 3f a1 b1 be 4c c6 d3 bd ad cd 82 bf
       0.2491017 -0.34693334 -0.103405565 -1.0219017
0000f0 36 36 fe 3d d2 12 b5 be 3f 34 f5 bd c3 d6 9a 3d
       0.12412684 -0.3536592 -0.11972856 0.07560494
000100 98 31 a4 bd 5b dd 26 bf d5 13 be be 8f 8e cb 3d
       -0.08017272 -0.6518151 -0.37124506 0.099393
000110 c5 a4 4d bd aa c7 61 3d f0 cc 5a be 77 91 1f 3c
       -0.050205965 0.055122055 -0.2136724 0.009739271
000120 10 ff 1e 3e 32 49 9d bd 55 2d 9b bd 1f a4 af bc
       0.15526986 -0.076799765 -0.07577006 -0.021440564
000130 db 8c f4 be 92 a8 95 3c 4b 12 06 3e c2 b5 02 3e
       -0.47763714 0.018268857 0.13092916 0.12764648
000140 86 74 09 bf 76 d4 64 3d 4c e4 b4 bd 18 58 28 3c
       -0.53693426 0.05586668 -0.08832607 0.010274909
000150 c3 34 2b bc ec f1 a9 3c 67 8e 0d 3e 93 54 71 bd
       -0.010449591 0.02074524 0.13823853 -0.058918547
000160 53 21 5f be f4 92 8d be 25 b1 f2 be ae 71 00 be
       -0.21790056 -0.2765118 -0.47400776 -0.12543365
000170 c2 a3 12 bf 04 88 83 3d ab da 0d 3e 7f 30 01 be
       -0.57281125 0.06422427 0.13852946 -0.12616156
000180 8b aa b8 3c b8 53 8f 3d 72 f5 20 bf 70 b5 a5 be
       0.022542259 0.0699839 -0.6287452 -0.32364988
000190 16 65 3b bd 17 66 ec 3c 7a 9f 0f bf aa 43 c5 3d
       -0.0457507 0.028857274 -0.56102717 0.096320465
0001a0 57 02 c0 3d f0 d5 2a 3d 35 ae 2d 3d 48 5b 95 3b
       0.09375446 0.041707933 0.042402465 0.0045580007
0001b0 f1 39 86 bd 9b 1c e2 be 30 80 63 be 7f 0c c1 3d
       -0.0655402 -0.4416245 -0.22216868 0.094262116
0001c0 13 f7 29 be e8 f0 4d bb 92 94 95 be 34 d2 9d 3d
       -0.16598158 -0.003142411 -0.29214913 0.07706109
0001d0 ea d8 c8 bc 67 44 3d c0 d1 8f 36 be cb ed 63 be
       -0.024517495 -2.9573 -0.17828299 -0.2225868
0001e0 d7 39 63 bf 86 d6 dd be 1f c8 cb be 5a 5a 58 bf
       -0.8876013 -0.4332773 -0.39801118 -0.84512866
0001f0 96 a7 18 3e e5 21 a0 bd b8 ce 97 bd 0e f6 86 be
       0.14907679 -0.07818965 -0.07412475 -0.263596
000200 52 8a 43 3c 48 89 41 be e7 77 6c 3c e9 3b 91 3d
       0.011934834 -0.18900025 0.014432884 0.07091505
000210 4e a2 29 3d 72 84 f1 be ef 2c ce 3c a2 bc cb be
       0.04141455 -0.4717136 0.02516791 -0.39792353
000220 88 2d e6 bd 9c d5 4c bd 9a f1 54 bf 55 e6 16 3e
       -0.11239153 -0.0500084 -0.83181155 0.14736302
000230 09 97 a4 bd 8a d9 b2 3d cc 5c 37 3e af f8 b6 bf
       -0.0803662 0.087328985 0.17906493 -1.4294642
000240 b6 ba a0 be 91 28 34 3e 8a bb f3 3d 8d f8 a9 bc
       -0.3139245 0.175936 0.119010046 -0.020748401
000250 03 47 f4 be 21 f4 a3 be 72 1f 82 3d 5a c6 21 3e
       -0.47710428 -0.32022193 0.06353654 0.15798321
000260 13 5d 29 bf f7 83 9f 3c 1d 23 76 be e5 e8 fc 3d
       -0.66157645 0.019472105 -0.24036832 0.123491086
000270 66 4f fd 3d 64 7a 48 3e eb 73 2a 3e 51 bd a5 be
       0.1236866 0.19577938 0.16645782 -0.32371
000280 a1 e2 c7 be 6f f8 75 3c f8 c9 99 3d f6 81 97 be
       -0.39040092 0.0150128445 0.075092256 -0.2959134
000290 f3 62 2b 3e 4b a4 2b bf c9 cd cf be 6e 8b 7b 3e
       0.16736965 -0.67047566 -0.4058669 0.24564907
0002a0 9e 11 a3 be aa c2 12 be a2 23 a2 bd c6 93 65 bd
       -0.31849378 -0.14332071 -0.07916953 -0.05604913
0002b0 55 be 15 3f 95 16 f5 be 6a c4 ef 3c eb 2c fe be
       0.5849355 -0.4786879 0.029268462 -0.49643645
0002c0 bc a9 91 3c b1 8b 99 be a3 f6 3d 3e 26 25 bc 3d
       0.017781131 -0.2998939 0.18551116 0.09186773
0002d0 ad 8f 07 3e 5f 60 b4 bc 83 63 d5 be 6a 6a 45 be
       0.13238402 -0.02201861 -0.41677484 -0.19278875
0002e0 6b 23 d6 be db 4f 45 ba e1 66 22 bd 5f 34 2c bf
       -0.41823897 -0.0007526853 -0.039648894 -0.6726741
0002f0 13 e3 20 3e d5 9c 82 be f5 29 9c bd 92 c8 4e 3e
       0.15711622 -0.25510278 -0.0762519 0.20193699
000300 94 71 99 bc 23 cf 20 3e e0 4a b1 be 31 77 e8 3d
       -0.018730916 0.15704016 -0.34627438 0.11350859
000310 72 70 07 3e 84 46 2c bd 35 32 14 bf 74 6c 61 3e
       0.13226488 -0.042059436 -0.5788911 0.22014028
000320 64 f2 1f 3b ca af 4d 3e fa 43 e4 be 60 46 9c be
       0.002440595 0.2008659 -0.44583112 -0.30522442
000330 89 10 9e 3a 80 11 7e bd cd e6 2d 3d a3 7a e0 3d
       0.0012059371 -0.062028408 0.042456437 0.10960891
000340 9b 02 4d bf 34 a6 0e 3e 1e b0 1d bc c1 03 db be
       -0.800821 0.13930589 -0.009624509 -0.42776302
000350 ed 8c db 3d 58 3b 56 be 72 16 4e 3d 0f 6a 18 bf
       0.10720239 -0.20921075 0.050314374 -0.5953683
000360 33 46 2d 3d 06 a0 c2 bd f4 f4 15 bf 6b 43 0e bf
       0.042303275 -0.09503178 -0.58576894 -0.5557162
000370 36 0a b8 be 7b dc 21 be e2 35 e4 3d 45 c8 37 3e
       -0.3594529 -0.15806763 0.1114309 0.1794749
000380 7e 91 42 3e e3 c7 c8 be 93 e1 08 bf 28 31 2d be
       0.19000813 -0.39215 -0.534692 -0.16913283
000390 c3 67 e9 be f7 82 ab bd 7b bf d8 be ba 24 0d bd
       -0.45586976 -0.08374589 -0.42333588 -0.034458853
0003a0 77 4c 3e be 5a 37 59 3e 9e 6f 07 3e 16 6c 77 bd
       -0.18583857 0.21212521 0.13226172 -0.060405813
0003b0 d4 5f 5b 3d 8a 1f fe be 4e c7 25 be 6e 4f 30 3e
       0.053558186 -0.49633437 -0.1618931 0.172178
0003c0 65 24 75 be 88 db eb 3d 7f 76 c7 be 95 fc cf 3d
       -0.23939665 0.11516482 -0.38957593 0.10155598
0003d0 b4 5b 01 3d f0 1b 89 c0 eb f0 c9 be e4 2c 9a 3d
       0.031581596 -4.2846603 -0.39441618 0.075280935
0003e0 9a 87 8d be 4e db 06 be 51 1f 21 bd d8 60 12 bf
       -0.27642518 -0.13169596 -0.039336506 -0.5717902
0003f0 6e fe c0 bd 25 2d d9 be ed d7 04 bf b4 99 88 be
       -0.094235286 -0.42417255 -0.51891977 -0.26679766

net.5.bias f4 [20]
000000 e8 e8 7b be 45 8d c2 bd 76 c1 48 3d 78 07 0c be
       -0.24600565 -0.09499601 0.049012624 -0.13674724
000010 c6 f0 72 be e9 5a 26 bd c8 e2 d9 bd 4a f5 9c be
       -0.2372466 -0.040614042 -0.10638958 -0.3065589
000020 42 f6 65 be 00 89 40 be c1 3c 6f be c8 54 40 3d
       -0.22457221 -0.18802261 -0.2336302 0.046955854
000030 cc 5b 89 bd 15 dd 87 bd 33 87 4f be 16 97 ca bd
       -0.06706962 -0.06633965 -0.20266418 -0.098920986
000040 69 86 0a bd 26 eb 6d be 77 58 a8 3d d5 bd 37 be
       -0.03381959 -0.23234233 0.08219998 -0.17943509
