NLP/API_Endpoints/Chatbot/data.pth (torch, 146033 bytes, 6 tensors)

net.0.weight f4 [128, 127]
00000000: 4e8d a6bd 2fa7 6a3d 3980 72bd f75d 703d
00000010: 245b ddba cacb 04be 83f6 3f3d a421 d73d
00000020: 27dd d0bc 2152 8a3e 97e0 ce3b 4633 623e
00000030: dbcd 593e 8528 50be 3e3e ea3d 0416 bb3d
00000040: a7b3 c53d 94c5 0bbe ff67 933e e18c f13c
00000050: ca6d a5bd 7023 01be 7a71 e03d 8b61 9cbd
00000060: 8be8 4d3e 5ecb 163e ce53 d7bd 25c8 603e
00000070: cafc 2dbe f7b9 4dbe 3559 6e3d de42 cdbd
00000080: e811 75bc c133 303e ed36 55be 0f2b 68be
00000090: 73a9 77bd 8da0 ca3e e4d4 a9bd 310c 213e
000000a0: fb03 133b 37fe b23d ff62 253e 1cbf a53c
000000b0: fdbd a5bd 770a 71bd 8aa6 ff3d 4095 bcbd
000000c0: 6add 1cbe b577 a2bd e153 6cbe ac6d 2d3e
000000d0: 675b a7bd c0a3 3a3e 3119 c23c bcba 3d3e
000000e0: 5f92 95bd 91b7 1d3e 97b1 f33d 380b f93d
000000f0: 14d3 d93a 1ecf 383d e03b 543e 31d5 d5bd
00000100: 1626 17bd 4a12 123d eb56 8d3d 8861 0d3e
00000110: 5a91 843e c3b8 08bd e72b 86bd a76d 2ebd
00000120: 0404 96bd e8b7 333f dbb4 303e 58b7 513e
00000130: 1854 073c 3503 513e 5412 4f3d 2f85 acbd
00000140: ef24 28be 7ed7 273d 4258 9bbc 3e6e 9f3e
00000150: 8fd4 49bd a250 3bbd 151e e8bd e658 acbc
00000160: 1678 b1bd d3f7 8abd ed93 34bd 0f9d ea3d
00000170: f780 c13c 39df 623e 4f91 e83d 21c4 913e
00000180: 8032 acbc 4ddb 1c3d 600a 44bd 075b cbbc
00000190: 8f0d 8abd a0a7 d2bc 8cb4 733e eba7 8e3c
000001a0: 2291 a4bd 3d7f 2f3e 4574 1f3e 2a92 96bd
000001b0: 2817 57be 5d39 57bd 4a62 cfbd 4586 83bd
000001c0: e4c9 31bd 0d6e e5bb 8524 86bc 265a 6a3e
000001d0: c90d c5bd 0a8e 40bd 6f95 76be 2768 e73d
000001e0: c0c1 05be 6603 9d3e c443 36be f048 71bb
000001f0: 4a5e 7ebd 0a9f c8bd 8b75 56bd 2119 493e
00000200: 7527 8b3d 583d 6c3c bd1a 233e caaf 57bd
00000210: e28a 8f3e edfe 56bd bf16 153d ba75 3d3e
00000220: b103 8a3d ed7e 2c3e 8a9b 4f3e b9c4 7cbe
00000230: 9417 103f ceb5 28be 6072 3fbd e0ce 22be
00000240: 6e76 4e3e 8829 28be c849 d2bc bb14 4b3e
00000250: e226 903e 88d4 c0be fb76 66bd fa52 93bd
00000260: 1c09 483e 7979 363e 4045 d13d 0c6a 80be
00000270: c2c9 28be eec7 a13e 4e8a 30be 60af 443d
00000280: 0fa5 13be de40 1d3e 45be fabd b9d1 8dbe
00000290: 42a6 8cbe ea7e ff3d 74d6 fdbd c6a8 a13e
000002a0: e0f3 7a3b ac02 8eba 9fb7 233e 31c9 7b3e
000002b0: 337c 353e 7db2 06be 81dd 353e 0030 ba3e
000002c0: e5b7 b63d 4fdd 3f3e a4c1 3a3e 5296 5c3e
000002d0: 2f22 f63d a019 a13c 4209 19be d266 acbd
000002e0: 2416 0bbe 74f6 35be 7515 05be d2f5 413e
000002f0: 2434 be3d 39d3 2abe e960 e43d e57e 7fbb
00000300: 5b8a 0abe b5b9 2d3e 0da2 b03d 9a90 7d3e
00000310: 007a 07be af5b a4bd a218 02be 53e2 90bc
00000320: ee6b 28be 1648 0f3e ac12 6dbd 5885 1f3c
00000330: 8b2a 833d 457f 8a3d d4b7 5ebe 9bb0 a33e
00000340: f948 38bd 3b0c dabb e2f6 dbbd da8c 443d
00000350: 56ba 563d 6448 9b3e 99a1 363e 4829 8cbe
00000360: a115 cc3d 9b34 0d3d 03aa c5bd 6254 383d
00000370: 570c 0a3c 8600 963e e491 0bbe 809a 17be
00000380: 423f 41be 1817 d9bd 8cd7 2c3d b280 b33e
00000390: bbb7 97be 5fa1 2dbd ceb6 e0bd 253b 8a3d
000003a0: 3a5d 5cbd 5f53 dcbd 5029 48be eed1 0cbe
000003b0: a685 43be 56f9 8bbe 8631 4b3e e498 183e
000003c0: 7485 0b3e 07cd 39be 3284 69bd 3428 d2bc
000003d0: 9f5a acbc f61e 5cbe 9800 07be 80ab 9cbc
000003e0: 902b 87be 8572 89bc 7e8a 70bd fc87 eb3b
000003f0: 7b0a 2cbd caa6 8b3b 273d 29bc 5683 0c3d
-0.081324205 0.057288345 -0.059204314 0.05868336 -0.0016888124 -0.12968364 0.04686595 0.10504463
-0.025496079 0.27015784 0.0063133943 0.22089872 0.21269934 -0.20327957 0.11437653 0.091350585
0.096534066 -0.13649589 0.2879028 0.029486122 -0.08077581 -0.12611175 0.10959144 -0.07635792
0.2010824 0.14726016 -0.10514031 0.21951349 -0.16990963 -0.20090471 0.058190543 -0.100225195
-0.014957882 0.17207243 -0.20821734 -0.22672676 -0.060464334 0.39575616 -0.08292559 0.15727307
0.0022432792 0.08739894 0.16151045 0.02023273 -0.08092878 -0.05884787 0.12482937 -0.09208155
-0.15318838 -0.079329886 -0.23078872 0.16936368 -0.081717305 0.18226528 0.023693653 0.18528265
-0.07303309 0.15402056 0.11899107 0.12160343 0.0016618692 0.045119397 0.20725965 -0.10441054
-0.036901556 0.035661973 0.06901344 0.13806736 0.25892144 -0.033379328 -0.065513425 -0.04258504
-0.07324985 0.70202494 0.17256491 0.20480096 0.008259796 0.2041138 0.05055459 -0.0842384
-0.16420339 0.040976994 -0.018962983 0.31138796 -0.049274977 -0.045731194 -0.11333863 -0.021038484
-0.08665483 -0.0678555 -0.044086386 0.11455738 0.023621066 0.22155465 0.113558404 0.28469947
-0.021020174 0.03829508 -0.047861457 -0.024823679 -0.06740867 -0.025714695 0.23799342 0.017414054
-0.080354944 0.17138381 0.15571697 -0.07352097 -0.21004927 -0.05254494 -0.10126169 -0.06422094
-0.04340543 -0.0070016445 -0.016374836 0.22885951 -0.0962177 -0.04701046 -0.24080442 0.11299162
-0.13062191 0.30666655 -0.17799288 -0.0036817156 -0.06210164 -0.09795959 -0.05235819 0.19638492
0.06794635 0.014418922 0.15928169 -0.05265788 0.28035647 -0.05248921 0.036398645 0.1850194
0.06738985 0.16845293 0.20274177 -0.24684419 0.5628598 -0.16475603 -0.046739936 -0.15899229
0.20162365 -0.16422093 -0.025669947 0.19832127 0.28154665 -0.37662148 -0.056265812 -0.07193561
0.19534725 0.17819776 0.102182865 -0.25080907 -0.16483214 0.31597847 -0.17240259 0.048018813
-0.14418434 0.15356776 -0.12243322 -0.27699068 -0.27470595 0.12475379 -0.12394419 0.31574076
0.0038292333 -0.0010834537 0.15988015 0.24588467 0.1772316 -0.13154025 0.17760278 0.36364746
0.08921794 0.18736766 0.1823793 0.21541718 0.12018239 0.01966554 -0.14944938 -0.08418049
-0.13582665 -0.17769796 -0.12996466 0.1894143 0.09287289 -0.16682138 0.11151297 -0.0038985547
-0.13529341 0.16965373 0.08624659 0.24762192 -0.13230133 -0.080253 -0.12704709 -0.017686045
-0.16447422 0.13992342 -0.057879135 0.0097363815 0.06404599 0.06762556 -0.21749812 0.31970677
-0.044991467 -0.00665429 -0.107404485 0.04798589 0.052423798 0.30328667 0.17835082 -0.27375245
0.09965063 0.034473997 -0.09651568 0.04500235 0.008425794 0.29297274 -0.13629872 -0.14805031
-0.18871787 -0.10600108 0.04219775 0.35059124 -0.29632363 -0.042390224 -0.10972367 0.06749562
-0.053799845 -0.10758089 -0.1954701 -0.13751957 -0.19093952 -0.27338666 0.1984311 0.14902073
0.13625127 -0.18144618 -0.057010837 -0.025653936 -0.021039305 -0.21496186 -0.1318382 -0.019124746
-0.26400423 -0.01677824 -0.058725826 0.0071878415 -0.042002182 0.004261826 -0.010329521 0.03430494

net.0.bias f4 [128]
00000000: 8f37 9c3c 11ea 8b3e 1e93 fe3d 3217 663d
00000010: 2b9b 613d ab92 383e d145 4e3c f424 7d3e
00000020: 50bb 3a3e 18c8 b73d 0714 013c a02b 043e
00000030: fbb9 4d3e a6b1 943e 2a4f f33d ba93 da3d
00000040: f38a 26bc a653 223e bbe3 99bc c811 da3d
00000050: 4cd7 1a3e 5211 d13c eeb4 2b3e cd1c 0e3e
00000060: 3121 3b3e d705 663d 7d91 623e 42a4 5e3e
00000070: d6da adbb 7cf8 323e c896 883d 20fa 863d
00000080: a435 553e e5d5 b3bd 8120 733c b048 983e
00000090: e070 473e 5ecd 373c fd9f 953e 7db4 b43d
000000a0: 3784 b63c 6ddf bf3d 09d0 d83d d5be 2f3e
000000b0: 80e6 b83e c9dc a83d 5269 0b3e 94da cd3d
000000c0: 1a43 ee3d 3e37 5a3e f488 e93d 44ac 903e
000000d0: 92f6 ef3d 28af 473d f4a1 e03c 18d3 bb3d
000000e0: 93f9 ce3d 5057 203e caaa ce3d c188 103e
000000f0: ea16 a53d 4950 9c3e 5aba 403d 76ef a6bc
00000100: 17d4 4a3e 4c41 8fbb 9fe5 233e 6d23 893e
00000110: 4836 9f3e c13b ebbc 2f55 d53d 53b1 003e
00000120: 0c56 713e fdd1 8f3e 7e44 a53d 7aff 3e3e
00000130: 9798 253e e9e2 7a3e c1b7 ea3d f7a9 2c3d
00000140: 6ce4 953d c024 623e 70c8 8a3e 1b0a 953e
00000150: 6700 023e d2e6 543e dc66 cd3d a675 a93d
00000160: dd7b 093e 0c08 f33d 4015 9f3d 5851 6d3c
00000170: 96d3 4d3d e369 1d3e fcba 0b3c 4e0e 273d
00000180: 893b 553e 22db c23d c29f 713d b9a0 f53d
00000190: 58bc 603d cbbd ed3d 9c30 9e3e a1c6 0c3e
000001a0: 146e 803e ed91 1e3e 8647 0f3e eb80 8a3c
000001b0: 2e9f 293d a32f aa3c 01bf e33d 0183 1d3e
000001c0: d4f9 103e 155b 2d3c 3e04 033d 4129 a63e
000001d0: 1789 193e 8d94 c93e dbfe eb39 93a3 f33b
000001e0: 480d b83d 8c2e 8f3d fafc 4c3e 4c20 ab3d
000001f0: bdd9 ad3c 2c6c 39bd 7f0e 303e 80f1 c53d
0.019069461 0.27327016 0.12430404 0.056174465 0.05507962 0.180247 0.012589888 0.24721128
0.18235517 0.08973712 0.00787831 0.12907267 0.20090477 0.29041785 0.11880334 0.10672708
-0.010164964 0.15852222 -0.018785348 0.10647923 0.15121192 0.025520954 0.16768238 0.13878174
0.1827438 0.056157913 0.22125812 0.21742347 -0.0053056283 0.17477602 0.06669384 0.06590676
0.20821244 -0.087810315 0.0148392925 0.29742956 0.19476652 0.011218397 0.29223624 0.08823488
0.022279842 0.09368787 0.105865546 0.1716264 0.36113358 0.082452364 0.13614395 0.10051456
0.11633892 0.21310136 0.11403075 0.28256428 0.117169514 0.048751026 0.027420975 0.09171122
0.10106196 0.15658307 0.10091169 0.14114667 0.08061011 0.30530003 0.04705272 -0.020377856
0.19807468 -0.0043717977 0.16005562 0.2678484 0.310961 -0.028715016 0.10416638 0.12567644
0.2356798 0.28089896 0.080697045 0.18652144 0.1617149 0.24500622 0.114608295 0.04215428
0.07318959 0.22084332 0.27106047 0.29109272 0.12695466 0.20791176 0.100293845 0.08274393
0.13426156 0.11866769 0.07767725 0.014484726 0.050250612 0.15372424 0.008528467 0.040785126
0.20823492 0.095144525 0.058990248 0.11993546 0.05486712 0.11608466 0.3089646 0.13747646
0.25083983 0.15485354 0.13992128 0.016907176 0.04141157 0.020774668 0.111204155 0.15382005
0.14157802 0.010580798 0.031986468 0.3245335 0.14993702 0.39371148 0.00045012575 0.007435271
0.08986908 0.069913 0.20018378 0.083557695 0.02122199 -0.045269176 0.1719303 0.09665203

net.3.weight f4 [128, 128]
00000000: 2738 8ebd 09ba 123e f1f3 c93d 10f8 39be
00000010: ef74 27be e394 0fbb 0ea7 fb3c 97b3 52be
00000020: 0c83 16be 7f3a 073e 2ad9 8b3c 6f9a 383e
00000030: 2f11 943e d9ea 433d 8f8e 1b3e 005a c53a
00000040: f2d4 133c 41b4 1abe f094 323e faf0 083d
00000050: fbff 4e3e 1c13 9a3c fc8d 023d 98da 27bc
00000060: 3431 483e 1ea5 8abd f162 2ebe 1de9 c83e
00000070: 5cb1 573c dd7a adbd 5b1e 323d 66fb 17bd
00000080: 3070 3a3e 1950 cc3d 838e 233e 4831 4dbd
00000090: d291 aa3d c2d0 a73d b031 0fbd 0a8b 703e
000000a0: e005 0cbe f29a 253e fc9a 9dbe 3ba1 75bd
000000b0: 23cb 633e 1268 8cbe ce2d 033e c9ab d23d
000000c0: 2297 f63b 5f3b 44bd 111c b43d 424d 67bc
000000d0: 407f 3d3e cc35 d53c af73 c0bc 0d9e c6bd
000000e0: 6c7d da3d 7edc 843e db6a 43bc 407a 42bc
000000f0: 4e17 0f3e e498 d33e ab9b 1ebd 50ae 803d
00000100: 85d7 8fbe 7174 05bc 19ef 813d 6d7b 6c3e
00000110: 262a c23e dbc1 70bc 4f85 203c bc18 323e
00000120: a5cf 35be 8779 773e 8630 b5bc f6c2 dd3b
00000130: 934c ab3d ab1b 6d3e 23bd 4d3e e714 12be
00000140: e21b 3bbd 9b38 2c3e 7c80 91bc 5f03 43be
00000150: d01a 303e 171b 543d 2924 603e c4fa a13c
00000160: d33c e4bd df7a ebbd 812d f43c 9c38 d0bd
00000170: 0e18 593d 9b9d fd3d 813d c83d 5945 a9bd
00000180: abb9 34be 31eb 453e 571f fc3d 7067 a83e
00000190: 0278 9ebc 4867 51be 0f77 343e a365 98bd
000001a0: 194f 09bd 4cba 77bd ed53 c23d 9358 303d
000001b0: e1aa 5fbd d3ba 7cbd 9f4d 1ebe a636 923d
000001c0: a087 26bd e26a c5bc a1c9 b9bd 23fe 7f3e
000001d0: 7618 f93d 0601 3dbd 5603 b73d 44d1 cb3d
000001e0: a0ab c7bd 566d 1ebd 940a f23d cc6c feba
000001f0: 5715 fa3d 2bc5 55be cc68 cb3b a037 2abe
00000200: 663e 773e 93b5 1f3f 0241 843e fdc4 ba3d
00000210: 98de 62bc c527 6c3c d973 5d3d ffc6 c93d
00000220: 0865 383d 22c0 6e3e 31f5 413e d5eb c93d
00000230: 80d8 983d 8fd6 8b3e e282 8abd e3d0 8e3d
00000240: 0ba5 f63d 6435 9dbd 5b15 44be 6ad2 0fbe
00000250: a510 cb3c 95e9 21be 720d 063e ac35 d4bd
00000260: 13fd 49be 3919 16be c9a7 d33e df05 413e
00000270: 2a1e 0bbd e7fc 3a3e 3df2 173e 0f60 e93d
00000280: 3a98 813e 22a6 fdbd 637e 3ebe 16bc a53e
00000290: 4206 b53d bfb7 00bd fb2a b93e 3eac 72bd
000002a0: 802f f7bc 435c 623e 0ef6 ebbd 1cea 573e
000002b0: d847 473e e27a 7c3d dd81 413e 3479 5cbe
000002c0: 7b18 c4bd 7eff 41bd 8bbe 743e c4b3 bd3b
000002d0: b101 ca3e e3d3 463d 4cbe 76be b70a 1abe
000002e0: 7e12 4f3e f2f1 0b3e 9589 d7bd 0aaf f13d
000002f0: 4ab1 283c e6de 213e 0b26 2fbd 8bf6 5d3d
00000300: 600d f43d a4f8 b8bd c18b b83e c5e8 15be
00000310: a488 d3bd bb57 b93e abe2 c53e a597 6fbd
00000320: 35e7 8c3e 5d8e 653e 7abd 883d 576c d03d
00000330: fa34 393e af25 c83d 917a 253e c9dd 843c
00000340: 0f75 96bd 01bb 3e3c 16ad 283e 3e23 cfbc
00000350: 8945 e8bc 5c07 bf3e b7fd 8c3e 5dac e0bd
00000360: c902 863c d2f0 b73e 10c4 bdbd ec1a 593e
00000370: c6cc 8a3d f205 273e 1d40 373e 8cb7 67bd
00000380: b575 9a3e 5d52 d63d 93b6 52be 1a55 8c3d
00000390: 5a5a f1bc 8dc5 043f c34c b33d 1f18 fa3c
000003a0: c50c 773e 889f 603e 4e07 fbbd 48f5 8d3d
000003b0: 45fc 343d 81b9 15be 1296 453f f75e 9e3d
000003c0: 15c7 b2bd a690 bebd f94d 3dbe 8149 fcbd
000003d0: 6626 9dbd 46e4 383e da42 d33d 7592 edbc
000003e0: bc4f 203d 347e 72bd b36f 8f3e de3b 973d
000003f0: d588 d13d c78f c13d 29f7 95bd b575 7b3e
-0.06944304 0.1432878 0.09860981 -0.18161035 -0.163532 -0.0021908812 0.030719306 -0.2057632
-0.14698428 0.13205908 0.017071325 0.18027662 0.2891936 0.04783139 0.151911 0.0015056729
0.009022938 -0.15107824 0.17439628 0.03343294 0.20214836 0.01880794 0.031873688 -0.010244988
0.1955002 -0.06769775 -0.1702993 0.3924035 0.013164844 -0.084707 0.04348598 -0.037104987
0.18206859 0.09976215 0.15972333 -0.050095826 0.08328594 0.08194114 -0.034959495 0.23490539
-0.13674116 0.16172388 -0.30782306 -0.059968214 0.2224546 -0.2742315 0.12810442 0.10286672
0.0075253407 -0.047908183 0.08794416 -0.014117541 0.18505573 0.026026629 -0.023492662 -0.096981145
0.106684536 0.25949472 -0.011927332 -0.011869967 0.13973734 0.41327584 -0.038722675 0.062832475
-0.28094116 -0.008145438 0.063444324 0.23093958 0.37922782 -0.014694656 0.009797408 0.17392248
-0.17754991 0.24167453 -0.022117864 0.006767626 0.08364215 0.23155086 0.20091681 -0.14265786
-0.045680888 0.16818468 -0.017761461 -0.19044255 0.17197728 0.051783647 0.21888794 0.019772895
-0.11144414 -0.11498045 0.029806854 -0.101670474 0.053001456 0.123835765 0.09777356 -0.0826518
-0.17648952 0.19328 0.12310665 0.32891417 -0.019344334 -0.20449555 0.17623542 -0.07441261
-0.0335227 -0.0604804 0.09488664 0.04305322 -0.054606322 -0.061701607 -0.15459298 0.071393296
-0.040656686 -0.024098817 -0.09071661 0.24999289 0.12162869 -0.046143554 0.08936183 0.099520236
-0.09749532 -0.03867849 0.11818424 -0.0019411086 0.122111015 -0.20875995 0.006207561 -0.16622782
0.24144897 0.62386435 0.25830847 0.09119604 -0.013847016 0.014413779 0.05406556 0.098524086
0.045018226 0.2331548 0.1894119 0.098594345 0.07463169 0.27312133 -0.06763245 0.06973436
0.12043198 -0.07676199 -0.19148771 -0.1404511 0.02478821 -0.1581176 0.13091066 -0.103617996
-0.19725446 -0.14658059 0.41338947 0.18849896 -0.033964314 0.18260537 0.148385 0.11395275
0.25311452 -0.12385203 -0.186029 0.3237006 0.08839084 -0.031425234 0.36165604 -0.059246294
-0.030174017 0.22105508 -0.115215406 0.210854 0.19461 0.061640628 0.18897195 -0.2153061
-0.09574982 -0.047362797 0.23900811 0.005789252 0.39454415 0.048541915 -0.2409603 -0.1504315
0.20221898 0.13666514 -0.105242886 0.11800964 0.010296175 0.15807685 -0.04276089 0.0541902
0.119166136 -0.090317994 0.36044124 -0.14639576 -0.103287965 0.36199746 0.38649496 -0.05849423
0.27520147 0.22417589 0.06676765 0.10176914 0.18086615 0.097728126 0.16160037 0.016219037
-0.07346546 0.011641265 0.16472277 -0.02528536 -0.02835347 0.37310302 0.2753732 -0.10970376
0.01635875 0.3592592 -0.092659116 0.21201676 0.06777339 0.16310862 0.17895551 -0.05657153
0.30167928 0.10464928 -0.20577459 0.06852169 -0.029462028 0.5186394 0.087548755 0.03052908
0.24125965 0.21935856 -0.12257253 0.06931549 0.044185895 -0.14621545 0.77182114 0.07732957
-0.08729378 -0.09304933 -0.18486775 -0.12318707 -0.076733395 0.1805583 0.10315485 -0.0290005
0.03913854 -0.059202388 0.28014907 0.07384466 0.10231177 0.094512515 -0.07322533 0.2455662

net.3.bias f4 [128]
00000000: 06cb 32bc 9249 5b3c 2025 2d3d dcd4 abbc
00000010: 5ec0 c43c 1aad 523d 2d2f a93c 1399 103d
00000020: 2b81 9d3c 1b79 543d 75a7 933d 4cce 0fbd
00000030: 836d 3c3d 3f8b edbd 375c fa3c bb73 123d
00000040: 5b50 a13d 824d c23d f032 8bbd 7211 053d
00000050: c9f8 0b3e b2a4 febd d7aa fdbd 33f0 57bd
00000060: 4d28 95bd 87a3 5c38 df1b af3d 1e7f 283d
00000070: afaf f33c eb97 39bb c654 ffbd b129 8b3d
00000080: 475e 793c 102e 16bd da00 373d 8b43 b83d
00000090: a847 d23c 6c92 bf3d 9456 97bd 961c b23d
000000a0: 6abc d13d c60a 3f3d 9ba5 7bbd fd22 0cbc
000000b0: fde7 ebbc f0a5 c6bd df59 8dbc c254 c6bc
000000c0: 11c9 0c3e 1d26 c33c a52b bfbc f2dc 383d
000000d0: c8b6 a93d 634d 953c bc57 89bd 41b5 a6bd
000000e0: 98ee dcbd 151e 9ebd 7992 463d c0de c3bd
000000f0: e62a d53d ebe6 373d 8ec1 733d 6618 debc
00000100: 76c4 143d 9352 e13c ed70 293e 0f0b 14bc
00000110: 0155 243d f6fa c8bd 7102 b03d d68b cabd
00000120: 3419 633d f780 b03b 74f5 163e 1785 403d
00000130: 4008 82bd 940a b0bd 0ee2 7a3d 77d0 8bbd
00000140: 43ef 2e3c 6739 d13d fd5a ad3d d3a4 5e3d
00000150: 722f a3ba 015a e23c fb49 213d f362 b33c
00000160: 760b ac3d f408 013d 185e 9fbd 7201 3b3d
00000170: 3b25 93bd adec 19bd aee8 213d bdd9 91bc
00000180: 3c0b 75bd 5af6 ae3b 7ea8 1b3d 8280 cebd
00000190: 3944 15bc f27e f93c 8b80 0dbd 08a4 91bd
000001a0: d9b0 efbc a3a5 383e f1d5 a6bd 2a8e 91bb
000001b0: 7ff0 a33d 9f0c d13d 0ae7 ea3c f1d1 e0bd
000001c0: df41 fabc c126 a53c 2c8c 8eba 5fba 923b
000001d0: 047f 6abc a871 a23d 4647 c7bb 5862 71bd
000001e0: 7347 253e af63 ff3d e2fa 4b3b 7d2c 703d
000001f0: b7ef 1f3d 6853 34bd 8bb8 783e 3946 e2bc
-0.010912662 0.01338424 0.042271733 -0.020975523 0.02401751 0.051434614 0.020652378 0.035302233
0.019226631 0.051873308 0.07209674 -0.03510885 0.046002876 -0.11598825 0.03056155 0.0357549
0.07876655 0.0948744 -0.06796825 0.03248734 0.13669123 -0.12433757 -0.12386101 -0.052719306
-0.072830774 5.2604384e-05 0.08550238 0.041136853 0.029746858 -0.002831931 -0.12467341 0.067950614
0.015220231 -0.036665022 0.044678546 0.08997258 0.025668934 0.093541 -0.0738956 0.086968586
0.10241015 0.046641134 -0.06143723 -0.008553264 -0.028797144 -0.09699619 -0.017254768 -0.024210338
0.13748576 0.023821885 -0.023336241 0.045132585 0.08286816 0.018225377 -0.06706187 -0.0814004
-0.10787696 -0.077205814 0.04847953 -0.095639706 0.10408573 0.044897955 0.05951076 -0.027111243
0.036320172 0.027505195 0.16546984 -0.00903584 0.04012013 -0.09813492 0.08594216 -0.09889953
0.055443957 0.0053864676 0.1474207 0.047001924 -0.0634923 -0.085957676 0.06125074 -0.06826871
0.010677162 0.10216027 0.0846462 0.054356407 -0.0012450053 0.027630808 0.039377194 0.021897769
0.084006235 0.03150268 -0.07781619 0.045655675 -0.071848355 -0.037579227 0.03952854 -0.017804021
-0.059825167 0.005339426 0.038002484 -0.10083105 -0.009110504 0.03045604 -0.034546416 -0.071113646
-0.029259132 0.18031935 -0.08146275 -0.004441996 0.08004855 0.102074854 0.028674621 -0.10977543
-0.030548988 0.02016008 -0.0010875515 0.0044777836 -0.014312509 0.079318345 -0.0060814945 -0.05893168
0.16140537 0.12470185 0.003112488 0.058636177 0.03904697 -0.044024855 0.24289148 -0.027621375

net.5.weight f4 [19, 128]
00000000: 7591 8ebd 16cf 39be bc43 01bf d4ef d1bd
00000010: b102 fcbd 4a5f 603d 1e4a 06bf 9454 393e
00000020: 8fd8 60be ea8f 3abe 6588 a7be 5947 babe
00000030: 7be2 8bbe 8e78 3cbe 8d6f ecbd 11c9 a2be
00000040: 7ffb cabe 6fd7 bd3d fb81 33bd 58b9 00bf
00000050: c7e5 9cbe 4343 0f3e 7bf2 3e3d a134 25bd
00000060: 5b8b 4d3e 46ef 04bf 0527 4e3d fcaf 323c
00000070: 7d17 0ebe 9cc4 423e e3fe 363e dd42 7bbe
00000080: 523f 65be f101 45bc 1ea0 6dbe 0a06 4abe
00000090: f76d df3c 5696 e6bc 8eb9 293d 25f8 27b9
000000a0: f3a0 5fbe 47ac 50bf 070b 29bd ad3e 92be
000000b0: 03ea 2a3e aa55 863c f740 bbbd 2e13 a3be
000000c0: aadb dabd 2a56 d5be 17d0 5b3c 631d 233e
000000d0: 5d53 9cbe 2459 34be d71d 0c3e d572 06bd
000000e0: 1e0b 4abe 18a8 ad3d f811 c8be 8169 e93c
000000f0: 1bb3 f0bc 4487 4b3e 5cab b0bb fde1 2c3e
00000100: 3e98 a9bd 38d8 b83c d192 41be 1565 24be
00000110: b60b c1be dd6b febd f2d5 cbbf 8a4e 5f3d
00000120: 89fb 8cbf 5cde 393d 1826 81bd f0f4 7abc
00000130: d555 13bf 7607 103e 444e abbe 13a6 243b
00000140: 9f16 64be 46d0 353d 3c4b 8cbe 07cf 91bd
00000150: 32e8 a23d cae9 3fbf 4beb 6abe 1ede c03d
00000160: 23de 04bc ea47 fcbe 652a 053d 6b07 d8be
00000170: 22b4 3e3f 82a6 443d 4cb7 d4be 4895 f6be
00000180: d743 d63d 91b3 12be bd34 913d d154 a2bd
00000190: 237d 313e 6d44 69be cbda a23c b626 033e
000001a0: 4cc9 0e3d fb1c 68be b7eb 743d 3eaf bf3d
000001b0: 9677 f9be bb1a 81bf ad7c f0bc 444d f93d
000001c0: 3b66 e33d ee63 4dbe ff12 4abd dcee 70bd
000001d0: 4e8c 85be a711 ffbd 5377 d03d df08 12be
000001e0: eec2 08bf 7630 023e d00d 5dbe 7b5d f0bd
000001f0: 1ee6 fdbe cf0e 71bd 2a4b 11c0 50db 803d
00000200: 813a 87bd ff6d cd3b a71e 5bbf 271f 00bd
00000210: 3990 e7be 69e2 f4bd 0743 94be 87c2 3cbe
00000220: 08cb 3abe 6c57 2b3e 6026 69be b73c dbbd
00000230: 916e 08bf deb3 803e 32e0 333e 6793 82bf
00000240: 1466 31bf e679 183e cf05 3abb d115 57bf
00000250: 5658 aa3b cb93 94bb 0f0a 033e d34d 89bd
00000260: 0d59 e2bd beaf 2ebd feb3 113d 12ea 86be
00000270: 4691 2fbd 099f 223e 32f9 a73c 7de2 86bb
00000280: 6d4b 58bf 1f5f 78bd f41b 023e 7146 ba3d
00000290: b08b 00bf 98f5 4ebc 7ae4 5c3e f75e c3bd
000002a0: e74e 8f3e 4d80 3fbf 3ae8 663b 1d7f 04bd
000002b0: a63c b03d 4f6c 493e 1c01 15bf 4cc9 cfbe
000002c0: c475 703a 802d ce3d 66cd 16be b848 70be
000002d0: 8754 e8be 0173 1c3e 6b17 80bd 2bb7 96be
000002e0: ae20 59be 8260 11bf dd48 18bf 5eb7 78be
000002f0: df78 0f3b 6180 97bd b603 85bd 159c fdbe
00000300: 0f6d 513e a594 51be eddd 02be 6300 f43d
00000310: 9da5 53bf 95c6 f0bd 636b 84bf 86c6 273e
00000320: 3e44 cfbe 0444 c63c 2006 a1bc 39f7 ccba
00000330: d898 21be 8b29 16bd 49eb 003e fb61 e3be
00000340: c64b 33bf 0395 9b3d 31e7 f4bd a7c0 f6be
00000350: 38c6 023e 1a2d efbe 391e b0bd 41bf f2bd
00000360: 962d 2fbf a393 12be 5834 5f3e 37b8 e0be
00000370: 4e63 6ebe d2f2 5ebe b030 9c3c 26b2 b9be
00000380: 54c4 e83d 479a 28be bfde 6abe 0284 2ebd
00000390: 48fb 943c a2bd 8f3c 6d33 1d3e c3df f1bd
000003a0: 070d 253e c90b 1ebe 0174 333d 8015 69be
000003b0: efe7 423e ef30 d7be b69a 8f3d 981d b83d
000003c0: 64b1 cabd 9ece 73bf 9f73 963e 322f 653e
000003d0: 3b32 40bf 0fff 0abf 7c9c 283e 8de3 7abe
000003e0: 79cb 61bf 190b 403e d7fc 05bf b989 98be
000003f0: 8645 f3be 57fb 463c 614e 19c0 c4c4 26bc
-0.069613375 -0.18145403 -0.5049398 -0.10250822 -0.12305201 0.054778375 -0.52456844 0.1809867
-0.2195761 -0.18218961 -0.32721248 -0.3638256 -0.27321228 -0.18405363 -0.11544714 -0.31794026
-0.39645 0.09269606 -0.04382513 -0.5028281 -0.30644056 0.13990502 0.046617966 -0.040333394
0.20072691 -0.519276 0.05033018 0.010906216 -0.13876148 0.19020313 0.17870669 -0.24537225
-0.22387436 -0.012024389 -0.23205611 -0.19728866 0.027274115 -0.028147858 0.041436724 -0.00016018802
-0.21838741 -0.81512874 -0.041270282 -0.28563443 0.16690831 0.01639827 -0.091432504 -0.3185057
-0.10686429 -0.416673 0.013416312 0.15929179 -0.3053235 -0.1761213 0.13683258 -0.032824356
-0.19730803 0.08479327 -0.3907621 0.028492691 -0.02938228 0.19875818 -0.0053915214 0.16883083
-0.08280991 0.022564039 -0.18903662 -0.16054185 -0.37704247 -0.12422917 -1.5924666 0.05451826
-1.1014262 0.045378074 -0.06306094 -0.015317187 -0.57552844 0.14065346 -0.3345815 0.0025123402
-0.22274254 0.04438808 -0.2740115 -0.071195655 0.07954444 -0.7496611 -0.2294132 0.094173655
-0.008109602 -0.49273616 0.032511134 -0.4219316 0.7449361 0.048010357 -0.41546094 -0.48160768
0.10462158 -0.14326312 0.07090137 -0.07926334 0.17332892 -0.22780009 0.01987972 0.12807736
0.03485994 -0.22667305 0.059795108 0.09359597 -0.4872405 -1.0086282 -0.029356325 0.121729404
0.11103483 -0.20057651 -0.049334522 -0.058821544 -0.26083606 -0.12454539 0.10179009 -0.14261197
-0.5342244 0.12713799 -0.215873 -0.1173658 -0.49589628 -0.058852013 -2.2702127 0.062918305
-0.066029556 0.006269216 -0.85593647 -0.03127971 -0.4522722 -0.11957247 -0.28957388 -0.18433581
-0.18241513 0.16732568 -0.22768545 -0.1070494 -0.5329371 0.25137228 0.17565992 -1.0201234
-0.69296384 0.1489025 -0.002838481 -0.84017664 0.0051985187 -0.00453422 0.12796806 -0.06704297
-0.11052141 -0.04264807 0.035572045 -0.26350456 -0.042863153 0.1588098 0.020504568 -0.004116355
-0.8449009 -0.06063759 0.12705976 0.09095467 -0.50213146 -0.012631796 0.21571532 -0.095395975
0.27989885 -0.74805146 0.0035233633 -0.032347787 0.08605318 0.19670223 -0.5820482 -0.40583265
0.0009172822 0.10067272 -0.14726791 -0.2346524 -0.4537699 0.15278246 -0.062544666 -0.2943662
-0.21203873 -0.56787884 -0.5948618 -0.24288699 0.0021892113 -0.07397533 -0.064948484 -0.49533144
0.20451759 -0.2046686 -0.1277997 0.11914136 -0.8267458 -0.117566265 -1.0345272 0.16384324
-0.40481752 0.024202354 -0.019656241 -0.0015637643 -0.15780962 -0.036660712 0.12589754 -0.4441069
-0.70037496 0.07596781 -0.11958159 -0.48193857 0.12770927 -0.46714097 -0.085995145 -0.11852885
-0.68428934 -0.14314131 0.21797311 -0.43890545 -0.23280069 -0.21772316 0.019066185 -0.3626873
0.113655716 -0.16465102 -0.22936533 -0.04260636 0.018186226 0.017546479 0.15351649 -0.11810257
0.16118251 -0.15434183 0.0438118 -0.22762108 0.19033788 -0.4202952 0.07011931 0.089900196
-0.09897116 -0.9523715 0.29385087 0.22381285 -0.75076646 -0.5429544 0.16465944 -0.24500866
-0.882011 0.18754233 -0.5233893 -0.29792574 -0.4751398 0.012144885 -2.3954089 -0.0101787485

net.5.bias f4 [19]
00000000: 9993 07be 4a5c 89be f9b0 32bd 46f0 a1be
00000010: 9f43 22be 48d5 28be 7113 d7be d94f a4be
00000020: fc43 3ebe 62d0 dfbd 84ee 67be 88a5 7abe
00000030: d79d 87be a040 90be 2502 81be c1a2 75be
00000040: 2e10 9ebe 70d8 a03d a8c0 67be
-0.13239898 -0.26828223 -0.043625806 -0.31628627 -0.15846108 -0.1648761 -0.4200702 -0.3209217
-0.18580621 -0.10928418 -0.2264958 -0.24477208 -0.2648761 -0.28174305 -0.2519695 -0.23987867
-0.3087172 0.07853782 -0.22632086
