Backend & NLP/Chatbot/data.pth (torch, 152817 bytes, 6 tensors)

net.0.weight f4 [128, 139]
0.007375383 -0.06970118 0.16257249 0.057232074 0.16877747 -0.22228861 -0.03669953 0.04742476
-0.15417567 0.13258761 0.12426456 0.050862774 0.0006241005 0.2907638 0.08523046 0.0667288
-0.09075452 0.0040757484 -0.18253814 -0.092016004 0.027327906 0.32291836 0.09027522 -0.0878115
0.2828432 0.06167216 0.10251922 -0.12571372 0.2676999 -0.09848539 0.1255297 0.28697094
0.14829196 0.121753946 0.09017801 0.02168412 0.115838826 -0.1781178 0.13803315 0.25555643
0.3285179 -0.3096646 0.14560084 -0.21469457 -0.07474664 0.07567706 -0.13845623 -0.13078937
-0.13873018 0.08456822 0.24800643 -0.018837623 0.13731004 -0.033927042 0.295445 -0.17240347
-0.034908578 -0.07078247 0.23979536 0.012116707 -0.095086634 -0.14983621 0.22239125 -0.08633584
-0.102184474 0.08311067 0.004838967 0.052814346 0.010530475 0.050646782 -0.2696748 0.18418607
0.11949635 -0.35625994 -0.034653433 -0.114309624 -0.016724508 0.09118546 0.25132483 0.055681773
0.076647736 -0.14056417 -0.02236515 0.06933538 0.10350545 0.004102871 0.043344162 -0.089697056
-0.031299427 -0.15331177 0.025552124 0.19474821 -0.024125291 -0.076234326 -0.008366673 -0.072333604
0.20838067 0.3604704 -0.1383186 0.041754883 -0.3812601 -0.1803534 -0.01018288 0.039878383
0.10383082 0.14733973 -0.13417646 0.18000598 0.19789164 0.16754495 -0.041260876 -0.34256333
0.020328276 0.14712508 0.16923378 0.118248105 0.11317546 0.15100616 0.11029645 0.21087356
0.28763613 0.26249573 0.07491566 0.0064393044 -0.046222284 0.09984734 0.20512299 0.085024476
0.07830818 0.37427709 0.016663378 0.25226682 0.12332127 0.25603727 -0.06085423 0.0040790588
-0.10227949 0.03474969 0.24744576 0.11625622 0.0018382253 0.15603961 0.11475885 0.15170157
-0.07385936 -0.13681775 0.13291666 -0.022219162 -0.06748401 0.20474644 -0.08778505 0.40913078
0.12572224 0.77143914 -0.055255212 -0.08589559 0.22346771 -0.24799593 -0.16626458 0.0301075
-0.2040735 0.15401103 0.05854926 0.31258515 0.08000053 -0.14432809 0.2949007 0.040691208
-0.013164653 -0.087864876 0.13661444 0.08271877 0.24353099 0.19295189 0.10924834 0.02096448
-0.21393536 0.16789971 0.267212 0.30416948 -0.20983759 -0.065486826 -0.09988621 0.23605289
-0.04652501 -0.0052114967 0.21868107 0.24053803 0.14789365 -0.17968531 0.08747133 -0.19235922
-0.15066883 -0.19735624 -0.07745398 0.13461408 0.21660292 -0.20395711 0.108971335 0.14970666
-0.20343067 0.12565471 0.08186557 -0.13486479 0.10824397 0.111713335 -0.16955881 -0.00405653
0.19229254 -0.18463056 -0.1011349 -0.010107807 -0.3043511 0.24746783 0.16496249 -0.10801471
0.0516459 0.053283755 0.021449963 0.10702488 -0.26152903 -0.1319457 0.09575754 -0.068627656
0.0753612 -0.121680334 0.071748026 -0.1994367 0.10865425 0.06856205 0.19096419 -0.024305651
-0.060837407 0.004268668 0.06959588 0.21647328 0.28654072 -0.1469348 0.1947556 -0.2074377
0.12223741 0.09881881 0.018277153 0.14891528 0.10880598 -0.14779237 0.17628983 0.1370535
0.07742664 -0.09440898 -0.06589709 -0.2095859 0.27085274 -0.05690391 0.24745996 0.2247521
00000000: 32ad f13b 7ebf 8ebd 6779 263e 2e6c 6a3d
00000010: 00d4 2c3e a09f 63be 3f52 16bd 7740 423d
00000020: 3ae0 1dbe 0cc5 073e 6b7e fe3d 7c55 503d
00000030: ad9a 233a fede 943e 4f8d ae3d 1ca9 883d
00000040: 81dd b9bd db8d 853b 47eb 3abe e372 bcbd
00000050: c6de df3c 8e55 a53e 37e2 b83d 84d6 b3bd
00000060: d3d0 903e f29b 7c3d 99f5 d13d 19bb 00be
00000070: f60f 893e b5b2 c9bd dc8a 003e dbed 923e
00000080: d9d9 173e 225a f93d 40af b83d e5a2 b13c
00000090: e83c ed3d 8364 36be 9058 0d3e 4bd8 823e
000000a0: 8033 a83e 5c8c 9ebe 6318 153e e5d8 5bbe
000000b0: c414 99bd 93fc 9a3d 78c7 0dbe a6ed 05be
000000c0: 490f 0ebe 1a32 ad3d 66f5 7d3e 5c51 9abc
000000d0: 019b 0c3e 15f7 0abd 9144 973e 898a 30be
000000e0: 4cfc 0ebd 66f6 90bd ea8c 753e 2785 463c
000000f0: c8bc c2bd aa6e 19be 88ba 633e d8d0 b0bd
00000100: 1846 d1bd ed35 aa3d 3390 9e3b db53 583d
00000110: 0388 2c3c 0073 4f3d d112 8abe 469b 3c3e
00000120: 81ba f43d b467 b6be c2f0 0dbd 2a1b eabd
00000130: d601 89bc 71bf ba3d a6ad 803e 9212 643d
00000140: 7df9 9c3d 0ef0 0fbe 1e37 b7bc b5ff 8d3d
00000150: aafa d33d 6071 863b a689 313d 17b3 b7bd
00000160: d433 00bd c3fd 1cbe b052 d13c 136c 473e
00000170: 67a2 c5bc be20 9cbd 5f14 09bc a423 94bd
00000180: be61 553e 948f b83e 64a3 0dbe 2b07 2b3d
00000190: 8634 c3be 90ae 38be 18d6 26bc 8457 233d
000001a0: 41a5 d43d 3ae0 163e 8e65 09be 7d53 383e
000001b0: 1ba4 4a3e e790 2b3e 2a01 29bd 7664 afbe
000001c0: 7c87 a63c f5a7 163e 9f4b 2d3e 102c f23d
000001d0: 89c8 e73d 5ca1 1a3e 1be3 e13d 3def 573e
000001e0: 0b45 933e d765 863e 626d 993d cd00 d33b
000001f0: 9453 3dbd c37c cc3d c30b 523e 5021 ae3d
00000200: 0a60 a03d 3fa1 bf3e a381 883c 1e29 813e
00000210: dd8f fc3d 5117 833e 4942 79bd a0a9 853b
00000220: e977 d1bd b155 0e3d 6c62 7d3e be17 ee3d
00000230: 9bf0 f03a d9c8 1f3e b006 eb3d a857 1b3e
00000240: 9343 97bd f419 0cbe 4e1b 083e f604 b6bc
00000250: 0e35 8abd 0da9 513e a6c8 b3bd 9779 d13e
00000260: 55bd 003e 097d 453f 4a53 62bd 07ea afbd
00000270: b8d4 643e a5f2 7dbe 4341 2abe 01a4 f63c
00000280: a5f8 50be 11b5 1d3e 59d1 6f3d 290b a03e
00000290: 51d7 a33d beca 13be 39fd 963e d3ab 263d
000002a0: 8fb0 57bc 80f2 b3bd a8e4 0b3e 7568 a93d
000002b0: 3060 793e 2e95 453e 98bd df3d b3bd ab3c
000002c0: df11 5bbe e7ed 2b3e 03d0 883e 1abc 9b3e
000002d0: aadf 56be f51d 86bd 2491 ccbd d9b7 713e
000002e0: 0291 3ebd 34c5 aabb eeed 5f3e 9a4f 763e
000002f0: 6f71 173e 6dff 37be 2b24 b33d d1f9 44be
00000300: ee48 1abe c117 4abe 31a0 9ebd 46d8 093e
00000310: 28cd 5d3e 22da 50be 5d2c df3d b44c 193e
00000320: 2150 50be a1ab 003e 23a9 a73d ff19 0abe
00000330: 04af dd3d f6c9 e43d d3a0 2dbe a4ec 84bb
00000340: 56e8 443e cb0f 3dbe d01f cfbd 379b 25bc
00000350: e8d3 9bbe 3568 7d3e edeb 283e d136 ddbd
00000360: a78a 533d 1140 5a3d d5b7 af3c dc2f db3d
00000370: 22e7 85be c61c 07be 871c c43d a88c 8cbd
00000380: f956 9a3d 8a33 f9bd a1f0 923d 2239 4cbe
00000390: 1f86 de3d 436a 8c3d 1e8c 433e a51c c7bc
000003a0: a530 79bd 2fe0 8b3b 4988 8e3d 2cab 5d3e
000003b0: 77b5 923e 1476 16be 036e 473e 8c6a 54be
000003c0: 9b57 fa3d 8461 ca3d f8b9 953c 3f7d 183e
000003d0: abd5 de3d e256 17be 5285 343e c157 0c3e
000003e0: dc91 9e3d 7f59 c1bd 0ef5 86bd b09d 56be
000003f0: 36ad 8a3e 1314 69bd 2566 7d3e 6a25 663e

net.0.bias f4 [128]
0.240423 0.1251101 0.16216978 0.22950615 0.09887891 0.106240615 0.064663164 0.0077591017
0.05449832 0.04574944 0.041978087 0.14789507 0.047869425 0.085521296 0.19685881 0.08819585
0.05270357 0.14327969 -0.0008179231 -0.00066559133 0.0345479 0.1879428 0.1952016 0.08252966
0.23177738 0.03337745 0.0665754 0.06780809 0.11386115 0.1275556 0.016617002 0.03034398
-0.014794754 0.22351074 0.0552668 -0.04030442 -0.020013051 0.2521896 -0.016880602 0.21945587
-0.0005285489 0.023386309 0.12231841 0.05681817 0.21410646 0.12125551 0.1441256 0.006872309
0.08882739 0.022634996 0.030885806 0.06677713 -0.037044734 0.2542482 0.1674663 -0.03907722
0.11026479 0.24232505 0.0055365493 -0.04379081 0.10739271 0.038009115 0.011092151 0.09461975
0.013807096 0.21573864 0.23110758 0.058819287 0.12168947 0.09318879 -0.032025162 0.04101576
-0.07177574 0.107333645 0.0013498428 0.13604805 0.11310996 0.08370265 0.33792076 0.14540486
0.18491079 0.069448516 -0.081290625 0.3437293 0.19539447 0.12269836 -0.00053477945 0.23869568
0.03708008 0.03060059 0.11920217 0.31529087 0.014890042 0.2794747 0.31722528 0.12091046
0.19178304 0.066695444 0.045703825 0.20938943 0.008832251 0.29205558 0.1424767 0.025901394
0.22468334 0.14134966 0.068400696 0.29346868 0.18410642 0.11654622 0.048590407 0.15515563
0.2753305 0.048422523 0.0696155 0.088654004 0.21725239 0.2131781 0.079815395 0.22414862
0.2117903 0.14159937 0.09564007 0.32121846 0.06271499 0.05699283 0.063815735 0.0077356184
00000000: 7231 763e dd1c 003e d60f 263e a903 6b3e
00000010: 0781 ca3d ae94 d93d 1f6e 843d 1040 fe3b
00000020: a139 5f3d c463 3b3d 37f1 2b3d ce71 173e
00000030: bb12 443d ca25 af3d 5b95 493e 07a0 b43d
00000040: b3df 573d e9b7 123e e469 56ba 147b 2eba
00000050: 1982 0d3d 1474 403e eee2 473e 4f05 a93d
00000060: 0d57 6d3e cbb6 083d af58 883d f8de 8a3d
00000070: 0930 e93d ef9d 023e 6120 883c f093 f83c
00000080: b265 72bc 00e0 643e 715f 623d 3f16 25bd
00000090: 69f2 a3bc ff1e 813e 3049 8abc 0ab9 603e
000000a0: 518e 0aba a594 bf3c 1382 fa3d 2bba 683d
000000b0: b93e 5b3e cf54 f83d a995 133e 1b31 e13b
000000c0: 22eb b53d 076d b93c 3b04 fd3c 73c2 883d
000000d0: 38bc 17bd d22c 823e 497c 2b3e 6f0f 20bd
000000e0: 82d2 e13d 0f24 783e f16b b53b fe5d 33bd
000000f0: b6f0 db3d 72af 1b3d dabb 353c 00c8 c13d
00000100: 2837 623c 97ea 5c3e 77a7 6c3e 7eec 703d
00000110: 5438 f93d c4d9 be3d d12c 03bd 2400 283d
00000120: 29ff 92bd bed1 db3d 35ed b03a 2e50 0b3e
00000130: 32a6 e73d 4c6c ab3d f303 ad3e 03e5 143e
00000140: 4159 3d3e 063b 8e3d b37b a6bd 49fd af3e
00000150: 7d15 483e 4749 fb3d 7130 0cba a46c 743e
00000160: 48e1 173d 17ae fa3c 4420 f43d ce6d a13e
00000170: 5df5 733c 4f17 8f3e 5a6b a23e e79f f73d
00000180: c662 443e 9f97 883d ef33 3b3d 2f6a 563e
00000190: 25b5 103c 4f88 953e 69e5 113e 292f d43c
000001a0: 6413 663e f7bd 103e aa15 8c3d 8741 963e
000001b0: 6586 3c3e c9af ee3d bc06 473d 1ee1 1e3e
000001c0: 1ff8 8c3e b256 463d 9292 8e3d 3b90 b53d
000001d0: 6977 5e3e 5c4b 5a3e 4176 a33d 3787 653e
000001e0: 8edf 583e 6dff 103e f1de c33d bf76 a43e
000001f0: b770 803d 5071 693d d3b1 823d 127b fd3b

net.3.weight f4 [128, 128]
0.14215821 -0.019939478 -0.016473332 0.1449189 0.13456921 -0.16215241 -0.24090287 -0.23190728
-0.40826935 0.06742801 -0.0565996 0.121350534 -0.064497195 0.08453 -0.06170071 -0.2967566
0.115443766 0.18725316 -0.27139986 -0.2618517 0.08965501 0.23832354 0.075485215 0.013903928
0.16403219 0.010743074 -0.25320035 -0.048420202 -0.09222395 -0.008589384 -0.13082157 -0.21388717
-0.06446328 -0.014296385 -0.16710462 -0.19851084 -0.119589165 0.18356335 -0.017324679 0.25970116
-0.26697445 -0.20663565 0.043913264 0.21342912 0.13980734 0.04874946 0.023657339 -0.14039432
0.23914735 -0.21485156 0.11189789 0.32954526 -0.24697116 -0.11550253 0.20770144 -0.27178016
-0.028448377 0.31079984 -0.018494874 -0.32972735 -0.013354396 -0.36507195 0.05428183 0.15276851
0.16527784 0.25516555 0.46571726 0.10826424 0.029111871 0.19127929 0.08825101 0.014411286
0.11788059 -0.075654276 -0.064295664 0.080685586 0.21774401 -0.14239006 0.109239966 -0.14210656
0.19452308 0.07028188 -0.17851794 0.54730207 -0.14623883 0.13317175 0.12061479 0.16674833
-0.015974537 0.14149074 0.032759305 -0.006122187 -0.048386406 0.21860427 0.09139273 0.15949953
0.17201167 -0.0025766974 -0.1683912 -0.052065115 -0.10182166 -0.014425122 -0.20544878 0.14470218
0.2978924 -0.0116327 -0.06855414 0.13417855 0.3975569 0.08249958 0.21488775 0.05690419
0.13774246 -0.014932769 -0.18959673 -0.41238943 0.31842726 -0.12169957 -0.20677744 0.0834907
0.39284223 0.03750361 0.123068616 0.23861875 0.21925968 -0.23070377 -0.025177602 -0.029758282
0.15675972 0.019329714 0.030907638 -0.084138244 0.034218576 -0.1316304 0.10091712 0.027266711
-0.18792328 -0.14296362 -0.057937622 -0.18302502 -0.071504526 -0.0059693214 0.21481778 -0.0016145431
-0.002327909 0.09181601 0.09499091 -0.0059685325 0.09246776 0.43488452 0.065092735 0.049175628
0.33924487 0.09201122 0.09008693 0.15671174 0.3050594 0.04344255 -0.0272593 -0.2125887
0.08704079 -0.07669069 0.17989706 0.21372536 0.19958234 0.24762833 -0.06303821 0.08807391
-0.06874057 0.03775001 0.10449515 -0.36711663 0.06647285 0.2490643 0.17375965 0.05514773
0.30991536 0.0660331 0.40518108 0.15277468 0.11621054 0.15126777 -0.008247795 -0.17410222
-0.035680685 0.17427845 0.30662066 -0.03997913 0.14481471 -0.37073892 -0.093692765 -0.025079384
-0.09869117 -0.047128167 0.099152714 -0.061317433 0.27808806 0.15472464 0.24253418 -0.13541935
0.015668066 0.1986298 0.15957785 -0.042764444 0.085464306 -0.08190365 -0.024937477 0.06784687
0.09561764 -0.07630382 -0.13185452 -0.039535236 0.014790596 0.043036312 0.18291952 0.2531483
-0.31078908 -0.2441716 0.32650062 -0.06531744 -0.10452 0.13599972 -0.0019013352 0.12524256
0.16054569 0.09631359 -0.21769021 -0.23982608 0.025612652 0.059602685 -0.08095779 0.025853064
0.17591001 0.43738824 0.09012125 -0.0954052 0.18140838 0.3017475 0.10214463 0.16503042
0.3815144 -0.021298066 0.10598736 0.068711884 0.03619139 -0.019618433 -0.03397621 -0.3084271
0.12290335 0.19524933 0.08259762 0.53634757 -0.11903966 0.23568945 0.15949082 0.1541114
00000000: ec91 113e 1e58 a3bc 15f3 86bc 9f65 143e
00000010: 83cc 093e 480b 26be 3eaf 76be 1a79 6dbe
00000020: ae08 d1be b217 8a3d fbd4 67bd a186 f83d
00000030: 1b17 84bd 111e ad3d e2b9 7cbd 7bf0 97be
00000040: c86d ec3d 4bbf 3f3e ecf4 8abe 6d11 86be
00000050: 0c9d b73d 160b 743e fe97 9a3d 4dcd 633c
00000060: 0ef8 273e b803 303c 7aa3 81be 4354 46bd
00000070: e9df bcbd 7dba 0cbc 17f6 05be 3d05 5bbe
00000080: 5305 84bd 633b 6abc 791d 2bbe 6d46 4bbe
00000090: 2aeb f4bd 08f8 3b3e 7cec 8dbc 8df7 843e
000000a0: e0b0 88be 4c98 53be 65de 333d 2a8d 5a3e
000000b0: a829 0f3e 84ad 473d 09cd c13c 87c3 0fbe
000000c0: 0be3 743e 0c02 5cbe b92a e53d 28ba a83e
000000d0: 02e6 7cbe 978c ecbd b0af 543e c526 8bbe
000000e0: 920c e9bc 2821 9f3e 9082 97bc 06d2 a8be
000000f0: 66cc 5abc b6ea babe a056 5e3d 596f 1c3e
00000100: 983e 293e 0fa5 823e 7e72 ee3e a4b9 dd3d
00000110: 057c ee3c b8de 433e f2bc b43d 511d 6c3c
00000120: 616b f13d a1f0 9abd 72ad 83bd 7c3e a53d
00000130: 49f8 5e3e b3ce 11be 34b9 df3d 6284 11be
00000140: 0f31 473e f2ef 8f3d 68cd 36be fd1b 0c3f
00000150: a2bf 15be 2d5e 083e e304 f73d 13c0 2a3e
00000160: 08dd 82bc f3e2 103e 9f2e 063d a09c c8bb
00000170: d330 46bd ccd9 5f3e 1d2c bb3d d853 233e
00000180: d423 303e cfdd 28bb be6e 2cbe 3b42 55bd
00000190: e087 d0bd 5957 6cbc 2a61 52be cf2c 143e
000001a0: 5a85 983e 1597 3ebc 1d66 8cbd 1a66 093e
000001b0: 948c cb3e 8af5 a83d 890b 5c3e 5e14 693d
000001c0: 5c0c 0d3e 93a8 74bc a525 42be b524 d3be
000001d0: e608 a33e a03d f9bd 77bd 53be 2cfd aa3d
000001e0: 9e22 c93e 639d 193d 660b fc3d 7958 743e
000001f0: 9c85 603e 9c3d 6cbe 4241 cebc a4c7 f3bc
00000200: 9f85 203e 5959 9e3c 0432 fd3c ac50 acbd
00000210: c728 0c3d 1fca 06be a3ad ce3d 705e df3c
00000220: f66e 40be 0e65 12be 0050 6dbd e96a 3bbe
00000230: f770 92bd 4c9a c3bb 31f9 5b3e 149f d3ba
00000240: d58f 18bb 080a bc3d 988a c23d ae93 c3bb
00000250: bd5f bd3d 2fa9 de3e 574f 853d 626c 493d
00000260: 81b1 ad3e 6170 bc3d 7f7f b83d 0b79 203e
00000270: bf30 9c3e d1f0 313d e54e dfbc dab0 59be
00000280: 7142 b23d 0210 9dbd ef36 383e d2da 5a3e
00000290: 505f 4c3e 4892 7d3e 2d1a 81bd 1860 b43d
000002a0: dbc7 8cbd c19f 1a3d 8e01 d63d b6f6 bbbe
000002b0: eb22 883d b60a 7f3e 0dee 313e 96e2 613d
000002c0: 3aad 9e3e 5d3c 873d e573 cf3e f770 1c3e
000002d0: cbff ed3d f0e5 1a3e c221 07bc da47 32be
000002e0: e925 12bd 0d76 323e 62fd 9c3e 28c1 23bd
000002f0: 4f4a 143e 7ed1 bdbe fee1 bfbd 4873 cdbc
00000300: 991e cabd 7709 41bd 9410 cb3d fd27 7bbd
00000310: 8f61 8e3e 2370 1e3e e15a 783e 5fab 0abe
00000320: 515a 803c 9c65 4b3e 6068 233e c529 2fbd
00000330: e907 af3d 1abd a7bd ae49 ccbc 4df3 8a3d
00000340: 2ed3 c33d 2d45 9cbd df04 07be b3ef 21bd
00000350: 4254 723c d846 303d 414f 3b3e a79c 813e
00000360: bf1f 9fbe 1f08 7abe 172b a73e 26c5 85bd
00000370: 950e d6bd 8343 0b3e 3936 f9ba 963f 003e
00000380: 1766 243e 0f40 c53d 2fea 5ebe f894 75be
00000390: a0d1 d13c f221 743d 33cd a5bd cec9 d33c
000003a0: c121 343e 5af1 df3e 7d91 b83d cd63 c3bd
000003b0: 1ec3 393e a67e 9a3e 3431 d13d bcfd 283e
000003c0: db55 c33e 4879 aebc e70f d93d d1b8 8c3d
000003d0: 6c3d 143d d6b6 a0bc a32a 0bbd 28ea 9dbe
000003e0: c0b4 fb3d 71ef 473e f128 a93d 134e 093f
000003f0: 11cb f3bd 9358 713e 9051 233e 61cf 1d3e

net.3.bias f4 [128]
0.17918143 0.039521553 -0.059214078 0.014077306 -0.047555655 0.08471785 0.07070499 0.11022012
0.115984134 -0.15269686 -0.044006005 -0.11229423 -0.052006535 0.033708118 -0.042745247 0.121977724
0.01932917 -0.024618454 -0.049082663 0.08835478 -0.0057458086 -0.07854847 0.0039906693 -0.024319502
-0.0112312315 0.052643135 -0.1495146 -0.007907337 0.060793616 -0.03251391 -0.0039371117 0.041556824
-0.009833918 0.062038265 -0.06797585 -0.05725637 0.06260906 -0.039402522 -0.12573658 -0.09645894
-0.027528007 0.033846617 -0.050357804 0.03152271 -0.09174269 0.2726074 -0.010240717 0.1324869
0.043888696 0.003906819 0.07617732 0.026998725 -0.053134978 0.053972945 -0.024769831 -0.09105576
0.08738639 0.0051845917 -0.051645845 0.002738513 -0.024903128 0.0025378724 0.045624085 0.008696107
0.058354024 -0.031441305 -0.017646369 -0.021294508 -0.047376167 -0.042529568 0.011716128 0.04259659
0.1321812 -0.006123574 0.009134034 0.14583562 -0.017258035 -0.042492785 0.056803286 0.10711898
-0.067691445 -0.009035203 0.034405075 0.06737258 0.06223253 0.02747508 0.001178227 0.08449182
0.044269215 -0.09756067 -0.07661655 -0.06916392 0.18687865 0.022653256 0.019180575 -0.13839866
-0.10345367 0.08262983 -0.04498955 -0.136028 -0.15837379 -0.10936152 -0.076225325 0.11970209
-0.0662944 -0.07380318 -0.09187692 0.11790463 0.07821648 0.06875507 0.014343826 -0.055224612
0.0421043 0.077200994 -0.0706177 -0.032056004 -0.05732448 0.12045744 0.054239724 -0.007980189
-0.08688662 0.033260785 0.018354293 -0.08293452 0.018776903 -0.17092885 0.13450971 -0.038640596
00000000: 567b 373e 5ae1 213d 768a 72bd 80a4 663c
00000010: b8c9 42bd 8d80 ad3d c7cd 903d 16bb e13d
00000020: 1789 ed3d 915c 1cbe a43f 34bd 84fa e5bd
00000030: ce04 55bd 8611 0a3d a415 2fbd 75cf f93d
00000040: 3558 9e3c a4ac c9bc e70a 49bd 5af3 b43d
00000050: 5647 bcbb 05de a0bd 29c4 823b b139 c7bc
00000060: 3303 38bc 54a0 573d 5b1a 19be c68d 01bc
00000070: ba02 793d 4e2d 05bd e302 81bb 7d37 2a3d
00000080: 711e 21bc d61b 7e3d ec36 8bbd a885 6abd
00000090: 2e39 803d 8a64 21bd 17c1 00be 448c c5bd
000000a0: 6a82 e1bc c0a2 0a3d fc43 4ebd f51d 013d
000000b0: 97e3 bbbd 3293 8b3e aec8 27bc a5aa 073e
000000c0: a2c4 333d c604 803b db02 9c3d 6e2c dd3c
000000d0: 10a4 59bd bc12 5d3d 1aea cabc 717b babd
000000e0: a3f7 b23d 82e3 a93b 988a 53bd a078 333b
000000f0: a501 ccbc 6f52 263b 52e0 3a3d 1e7a 0e3c
00000100: a104 6f3d 99c8 00bd 1e8f 90bc d271 aebc
00000110: 830d 42bd 7c33 2ebd 01f5 3f3c c379 2e3d
00000120: 825a 073e 43a8 c8bb eaa6 153c ef55 153e
00000130: b960 8dbc ea0c 2ebd 90aa 683d 3261 db3d
00000140: d0a1 8abd 6308 14bc 56ec 0c3d a3fa 893d
00000150: 8ae7 7e3d 6b13 e13c bd6e 9a3a 0c0a ad3d
00000160: a353 353d e3cd c7bd 23e9 9cbd d0a5 8dbd
00000170: 1e5d 3f3e 5293 b93c 9520 9d3c 61b8 0dbe
00000180: 85df d3bd d439 a93d f646 38bd ed4a 0bbe
00000190: bd2c 22be eff8 dfbd 061c 9cbd 5f26 f53d
000001a0: 5cc5 87bd 1f26 97bd f729 bcbd fc77 f13d
000001b0: f62f a03d 75cf 8c3d 5e02 6b3c 3433 62bd
000001c0: 8f75 2c3d 8e1b 9e3d 03a0 90bd 284d 03bd
000001d0: 13cd 6abd 64b2 f63d 792a 5e3d 57bf 02bc
000001e0: 9df1 b1bd 763c 083d be5b 963c 93d9 a9bd
000001f0: 05d2 993c f907 2fbe eabc 093e 9a45 1ebd

net.5.weight f4 [20, 128]
-0.41703695 0.029077442 0.03457564 0.11182693 -0.3186457 0.059498012 -0.7905165 -0.26744485
0.031804435 0.05287022 -0.35961717 -0.4328114 -0.02589097 -0.26355505 0.051402874 0.101169914
-0.3594767 -0.08123701 0.09865994 -0.24542643 -0.5336272 -0.2636281 0.20893808 -0.02836852
0.083238564 0.037723795 0.11116866 -0.53910875 -0.42237046 0.11729745 -0.4958909 -0.3616767
-1.0759432 -0.72954327 0.19188477 0.082788385 -0.17984043 -0.045804713 0.39578742 0.058068305
-0.43212998 0.05988443 0.093962766 0.18530887 -0.07911777 -0.9671087 0.027680473 -0.6055568
-0.1271552 0.20432596 -0.0035915067 -0.28069425 -0.06217199 -0.6295318 -0.2747401 -0.2450289
-0.5518466 -0.04078025 0.25659993 -0.461736 -0.15386544 -0.492398 -0.1657119 -0.07032184
-0.7013122 0.252011 0.0047527375 -0.21873114 -0.19815841 -0.3729793 -0.530333 -0.48548394
-0.16474336 -0.40367207 0.21293278 0.09462999 0.12791345 -0.46758953 -0.19795129 0.14308031
0.14502716 -1.2464838 0.034552615 -0.29088712 0.180704 0.037956398 -0.8168476 -0.8182446
0.035372525 0.08442906 -0.012085014 0.12503096 -0.09480207 0.06925403 0.05903521 -0.114781946
0.17336525 0.088893116 0.20630898 -0.3196276 0.12685801 0.21706122 -0.10583171 -2.1964257
0.20262475 0.031783503 0.10578634 -0.31806087 -0.41752574 -0.4008536 -0.19541785 0.13287285
0.16945858 -0.66403204 0.13521047 0.09125787 -0.70611537 -2.2104132 -0.3779516 0.14167747
-0.023640215 0.2272716 0.13514403 0.0369776 -0.50902677 0.24081002 -0.27765113 -0.071567915
0.1179597 0.19250488 0.22704905 -0.45441613 -0.004353754 -0.4346168 -0.50231636 -0.21657224
0.1551359 0.09064288 -0.4298515 -0.2557255 -0.05032104 -0.26841998 -0.42403308 0.23048365
-0.070176914 -0.008168118 -0.070793234 0.074621126 -0.27668923 -0.38436273 0.1565493 -0.046360508
0.15310763 0.22708513 -0.03723796 -0.851623 -0.35516903 0.23467183 -0.6348521 -0.29195815
-1.8467172 -1.2519214 -0.31617448 0.042766362 -0.14388146 -0.11151822 0.87088877 -0.38831508
-0.80282325 0.17502446 0.13113782 0.22786087 0.06207876 -1.0939947 -0.6815943 -0.23157525
-0.09112607 -0.010681715 -0.054704204 -0.14944963 -0.0009163738 -0.8321796 0.114608996 -0.21758386
-0.316923 -0.15984753 0.10286563 -0.41432005 0.049426343 -0.35910356 -0.08407843 -0.037188057
-0.38253307 -0.10440045 -0.62288654 0.10557377 -0.15899974 0.2768848 -0.41406393 0.15514453
-0.36854348 -1.4362017 0.13414659 0.18059072 -0.20380503 -0.07777987 -0.68001163 -5.275745e-05
-0.24086334 -0.852225 -0.48379436 -0.1585611 0.2100604 -0.28741974 -0.83568907 -0.2042366
-0.015307038 -0.93729675 0.037271615 -0.25365764 -0.2837664 0.2112741 -0.6739044 -0.15063249
0.11130124 0.105414346 0.21064924 -1.144716 0.1713338 0.14952631 0.16122566 -2.0746908
-0.46725482 -0.64878136 -0.026282158 -0.18863593 -0.50500005 0.0036547543 -0.13764396 -0.8653304
-0.49462 -0.13478847 -0.52113754 -0.3046933 -0.24187112 -1.0339378 0.20417869 -0.09663128
-0.8211882 0.10207694 -0.059846357 -0.40452898 -0.3275571 -0.11007087 -0.13844979 -0.061830077
00000000: de85 d5be d133 ee3c 309f 0d3d 8405 e53d
00000010: 8725 a3be 30b4 733d 4a5f 4abf 88ee 88be
00000020: 5e45 023d 728e 583d be1f b8be 7599 ddbe
00000030: 4d19 d4bc b0f0 86be d28b 523d 2c32 cf3d
00000040: 540d b8be 975f a6bd 390e ca3d 1151 7bbe
00000050: cb9b 08bf 43fa 86be ddf3 553e 1965 e8bc
00000060: fb78 aa3d 4484 1a3d 65ac e33d 0803 0abf
00000070: f140 d8be a539 f03d 69e5 fdbe b02d b9be
00000080: 82b8 89bf 59c3 3abf 717d 443e f58c a93d
00000090: 1728 38be b99d 3bbd a6a4 ca3e 08d9 6d3d
000000a0: 2440 ddbe 6049 753d 8d6f c03d 9cc1 3d3e
000000b0: 7f08 a2bd 7094 77bf 29c2 e23c c505 1bbf
000000c0: f934 02be d33a 513e 7c5f 6bbb 28b7 8fbe
000000d0: 0ea8 7ebd ff28 21bf bcaa 8cbe dbe8 7abe
000000e0: d245 0dbf 3109 27bd 1161 833e a968 ecbe
000000f0: e78e 1dbe 971b fcbe 61b0 29be e604 90bd
00000100: 3289 33bf 9607 813e dabc 9b3b 0efb 5fbe
00000110: 0aea 4abe 25f7 bebe e7c3 07bf 5a91 f8be
00000120: 7cb2 28be 1bae cebe 0d0b 5a3e 5ecd c13d
00000130: befb 023e e567 efbe beb3 4abe a583 123e
00000140: 0082 143e c88c 9fbf 0b87 0d3d 28ef 94be
00000150: 780a 393e 2b78 1b3d ed1c 51bf 7a78 51bf
00000160: c8e2 103d 25e9 ac3d 3900 46bc 1e08 003e
00000170: 9627 c2bd 0fd5 8d3d e8ce 713d cc12 ebbd
00000180: a986 313e 980d b63d a942 533e 3ba6 a3be
00000190: 11e7 013e 4c45 5e3e 4cbe d8bd 3d92 0cc0
000001a0: dd7c 4f3e 6b2f 023d 82a6 d83d e0d8 a2be
000001b0: efc5 d5be af3c cdbe 9e1b 48be d20f 083e
000001c0: 8d86 2d3e 01fe 29bf 9d74 0a3e 68e5 ba3d
000001d0: fac3 34bf 6977 0dc0 df82 c1be e613 113e
000001e0: 20a9 c1bc e3b9 683e 3263 0a3e d375 173d
000001f0: 944f 02bf e796 763e 4a28 8ebe 3392 92bd
00000200: db94 f13d 0020 453e 8c7f 683e 3ba9 e8be
00000210: f0a9 8ebb 1886 debe ce97 00bf 1dc5 5dbe
00000220: f2db 1e3e f9a2 b93d 7f15 dcbe 74ee 82be
00000230: 6f1d 4ebd 586e 89be dd1a d9be e803 6c3e
00000240: eab8 8fbd 92d3 05bc 0bfc 90bd f6d2 983d
00000250: 36aa 8dbe 31cb c4be 764e 203e 84e4 3dbd
00000260: 3fc8 1c3e 0189 683e d586 18bd f703 5abf
00000270: b7d8 b5be d04d 703e ab85 22bf 8a7b 95be
00000280: 3b61 ecbf f63e a0bf 9fe1 a1be c82b 2f3d
00000290: a955 13be aa63 e4bd 91f2 5e3f 3cd1 c6be
000002a0: d385 4dbf 9d39 333e fe48 063e 5c54 693e
000002b0: 4c46 7e3d 0508 8cbf f77c 2ebf 1022 6dbe
000002c0: 4ea0 babd 5c02 2fbc 8411 60bd 5309 19be
000002d0: ce38 70ba b909 55bf 1fb8 ea3d 4ece 5ebe
000002e0: bb43 a2be 12af 23be 37ab d23d c221 d4be
000002f0: 4773 4a3d 6cdc b7be 5031 acbd 8152 18bd
00000300: 60db c3be e7cf d5bd 7e75 1fbf 1037 d83d
00000310: d4d0 22be d8c3 8d3e 3000 d4be 35de 1e3e
00000320: bbb1 bcbe 75d5 b7bf b95d 093e c6ec 383e
00000330: 44b2 50be 0d4b 9fbd 3e15 2ebf e147 5db8
00000340: e1a4 76be 6b2b 5abf e5b3 f7be d75d 22be
00000350: 131a 573e ae28 93be b8ef 55bf 6623 51be
00000360: 5fca 7abc aef2 6fbf 1faa 183d 6adf 81be
00000370: d449 91be 3d58 583e 0085 2cbf 673f 1abe
00000380: e8f1 e33d 7ae3 d73d 6fb4 573e 0e86 92bf
00000390: 2172 2f3e 6d1d 193e 5718 253e bcc7 04c0
000003a0: 063c efbe 8916 26bf ae4d d7bc c729 41be
000003b0: af47 01bf 9a84 6f3b 8af2 0cbe 4b86 5dbf
000003c0: d53e fdbe fd05 0abe 4569 05bf c300 9cbe
000003d0: 10ad 77be 1358 84bf 3814 513e 9fe6 c5bd
000003e0: 6439 52bf b70d d13d 7421 75bd 6c1e cfbe
000003f0: 90b5 a7be d66c e1bd c8c5 0dbe 8941 7dbd

net.5.bias f4 [20]
-0.08701944 -0.42289484 -0.036806673 -0.2772592 -0.38034064 -0.17951606 -0.31280163 -0.22622697
-0.14534222 -0.21008345 -0.17348792 -0.3380095 -0.24261211 -0.37998214 -0.22556385 -0.27893505
-0.3180282 -0.13551833 -0.06145855 -0.16228047
00000000: 4037 b2bd ac85 d8be 98c2 16bd ebf4 8dbe
00000010: 02bc c2be 0fd3 37be 8927 a0be 0ba8 67be
00000020: 97d4 14be 1e20 57be d1a6 31be 950f adbe
00000030: 4f6f 78be 058d c2be 36fa 66be 93d0 8ebe
00000040: 98d4 a2be 51c5 0abe f6bb 7bbd da2c 26be
